p2_continuous-control/checkpoint_actor.pth (torch_old, 542290 bytes, 10 tensors)

fc1.weight f4 [400, 33]
00000000: d4a4 dc3d a36a 92bd 1270 083e 5a0e 1fbd
00000010: 975e 053d 489b 873c 1635 ec3d d224 1bbb
00000020: e20e 843d 6a24 673a e69d 2fbc 9ccb c03d
00000030: 2f20 643b 40be b63d f4be bebd bd57 6ebd
00000040: eabf e23d 25e1 cebc e30e a9bd 69e9 37ba
00000050: 1354 4e3d ba39 36be 7a19 f3bd 9cbb a23e
00000060: 0afd 893d 8ed3 ff3d 6543 d63b e6b3 263d
00000070: b824 bc3b cd44 cdbc 30c0 94ba 6171 f4bc
00000080: 6b8a babd bfa9 623d 89bc 6a3d cdfd 74be
00000090: 29e0 50bd abbe b4bd b601 183c 9435 b2bd
000000a0: d1ea 863c 1785 0dbd d776 f93c 26a1 983d
000000b0: 3488 c0bc 9ac4 a93c 806d 44bd 9111 5cbe
000000c0: 2358 a63c 32be a9bc f8b6 d33d b05e d0bd
000000d0: d599 403d 17fa 1cbe 42db 26bd 7993 b9bb
000000e0: 7d37 39be 1d99 d9bd 3ec2 2c3e 8e0d 11bd
000000f0: 84b2 293d 1d74 9d3d d025 1e3d c019 d1bd
00000100: 7586 e7bc 5f4a 7f3d c68e 253e 9666 183c
00000110: 161d 113d a0be b4bd 489f 023e d7cd dc3d
00000120: 5a9a cb3d 9a30 f3bc cd05 94be c955 943d
00000130: 610e 2d3e f590 09bd f720 253d 7579 7a3e
00000140: f53b 413d 6728 5c3c 3321 8c3c 1074 98bd
00000150: b48b 34bc e060 8b3d 23f8 903c 8473 0d3e
00000160: 0638 c93c 3804 ad3c 8be3 bc3d f5c9 bfbd
00000170: c50d bcbd 9d3b 21be 40c0 373e b210 0abe
00000180: 1453 f13d 0c57 093e 3f61 ad3d 30f1 70bd
00000190: b4a3 e93d d895 7a3d 1875 1fbd 4db3 abbd
000001a0: b8f8 713d 4f9d 0d3d 668f 043e 3466 b2bd
000001b0: fa11 91bd 14b3 473e 31df 2c3c b4a9 143e
000001c0: 72fb a4bd 3591 c7bd cd8a 82bd 5c9e 383d
000001d0: 4bf9 a33d f188 123d 3b52 ae3d 4e57 6dbd
000001e0: 7bfc 4d3d 1cb1 903d 3f24 edbd 40ec b6bc
000001f0: 0617 f4bc df6a 8a3e 24cc f53c 2258 af3d
00000200: 7747 bfbc 8ec2 53bd 10eb bfbc 9886 6ebe
00000210: b0a1 043e 3f7a 9abd 0b13 d5bd 570f 4d3d
00000220: d4d7 1abd 047b c7bd 1540 2bbe d3b8 9ebd
00000230: c839 a73d 368d a03d 6f17 c23d 75fa 00be
00000240: 0ac8 dd3b 343c cf3d 4f43 a33c ada8 cf3d
00000250: 773f 86be bd25 e23c 113a 9bbd b263 a53e
00000260: 978f b1bd 7379 bcb9 5c6b fa3b 7af5 053e
00000270: 665e 6dbd 6119 733e e33a c23e 0091 923d
00000280: 10ff c4be df0c ba3d 982f d3bc 9023 3abd
00000290: 531b 0a3c 3e5e 52bd 2155 e53d 2a03 19be
000002a0: 2037 a33c 8bcf 7bbd f11d 8e3c 3205 853c
000002b0: 5355 0c3e c876 a5bd dbd2 5abd f192 c63d
000002c0: 6e26 283e 6324 ecbd cb17 213e ebca bbbe
000002d0: 36c7 6e3e 38e8 90bd 6029 b0bd f00e a13d
000002e0: f4bb 833c 9776 c43d 25d1 1b3e 6705 143c
000002f0: 65be 8d3e f305 cdbe 4c75 813e f135 43bc
00000300: 8393 bc3b 467f 70bc 4d0f 84bd 18f3 b2bc
00000310: 1b54 fa3c 72ea d3bc fa64 da3d 4858 b9bc
00000320: 328d 253e 33e0 c63d 0e67 293d a8e4 9e3c
00000330: d535 b73d fdf6 8ebd 2b28 ebbd 4d39 4f3d
00000340: 7c53 8f3d 5508 1abe eb28 03bd f7d4 003e
00000350: aa5c 9abd 22eb 90be 8616 033e dd33 003d
00000360: 2ec4 40bd 894f ec3c a2df fd3c 31b9 a3ba
00000370: 1fcd dd3a d4ab 88bd 6564 b4bb f48a 063d
00000380: 9da0 343c f91f 10bd 5bd3 fbbd 5536 4dbc
00000390: af01 d83c 2a51 de3c bd23 083e a86e 3e3e
000003a0: c889 9fbd f566 a1bd 2c40 543d e1b2 4f3b
000003b0: 2862 263c f481 c3ba e457 8fbc 2fe9 583d
000003c0: 25a3 833d ef72 3d3e ee8b 03be a503 773d
000003d0: 9ee5 593e 8531 42be 7be7 c4bc 9e1a 683d
000003e0: edec 26bd be26 cb3d 391e 893d cac1 afbd
000003f0: 570e 8e3d 82fb 933d f20c 4c3e 4183 5cbe
0.10773626 -0.071492456 0.13324001 -0.038832046 0.03256091 0.016553536 0.11533563 -0.002367307
0.06448151 0.0008817377 -0.010718798 0.094138354 0.0034809222 0.08923006 -0.09313765 -0.058189142
0.11071761 -0.025253842 -0.082547925 -0.0007015677 0.05037315 -0.17795458 -0.11870094 0.3178376
0.067377165 0.12491523 0.006538796 0.04069891 0.005741682 -0.02505722 -0.001134878 -0.02983922
-0.091084324 0.055337664 0.057308707 -0.23924942 -0.050995026 -0.088254295 0.009277752 -0.087016255
0.016469391 -0.034550752 0.030452175 0.074526116 -0.023502447 0.02072363 -0.04795599 -0.21491076
0.020305699 -0.020720575 0.10337633 -0.1017431 0.047021706 -0.15329777 -0.040736444 -0.005663332
-0.18087573 -0.10624907 0.16870973 -0.035413317 0.04143001 0.076881625 0.03861028 -0.102099895
-0.028262356 0.062326785 0.16167745 0.009301802 0.03542813 -0.08825421 0.12756073 0.10781448
0.099415496 -0.029686261 -0.28910676 0.07242925 0.16900016 -0.033585507 0.04031464 0.24460395
0.04717632 0.013437367 0.017105674 -0.07444012 -0.011019636 0.06805587 0.017696446 0.13813597
0.024562847 0.021120176 0.09223088 -0.09364692 -0.09182314 -0.15745397 0.17944431 -0.13482931
0.11783424 0.13412112 0.08465814 -0.058823764 0.11408177 0.06117806 -0.03893003 -0.08383808
0.059075087 0.03457385 0.12945327 -0.087109 -0.07083507 0.19501907 0.01055126 0.14517862
-0.08055772 -0.09744493 -0.063741304 0.0450729 0.08006533 0.03577513 0.08511778 -0.05794459
0.050289612 0.07065031 -0.11579179 -0.02232945 -0.029796135 0.2703466 0.030004568 0.08561732
-0.023349507 -0.051699214 -0.023427516 -0.23293531 0.12952304 -0.07542848 -0.10404023 0.050063457
-0.037803486 -0.0974026 -0.16723664 -0.07750096 0.08165318 0.07839434 0.09477126 -0.12595542
0.0067682313 0.10118905 0.019929556 0.10139594 -0.26220295 0.027605886 -0.07579435 0.32302624
-0.08669966 -0.0003594864 0.0076421928 0.13081923 -0.057951353 0.2374015 0.37935552 0.07156563
-0.38475847 0.09084486 -0.02577953 -0.04544407 0.008429366 -0.051359408 0.11197878 -0.14942613
0.019923747 -0.061477225 0.017348262 0.016237829 0.13704424 -0.08079296 -0.053423744 0.096959956
0.1642091 -0.11530378 0.15731733 -0.36678252 0.2331818 -0.07075542 -0.08601642 0.07864177
0.016080834 0.09592932 0.15216501 0.009034491 0.27684322 -0.400436 0.25284803 -0.011914716
0.0057548895 -0.014678782 -0.06448231 -0.021844432 0.030557683 -0.025868628 0.10663791 -0.022625104
0.16167143 0.09710731 0.041358046 0.019396141 0.089458145 -0.06980703 -0.11482271 0.050591756
0.06998345 -0.15042241 -0.032021444 0.1258124 -0.075372055 -0.28304392 0.12801561 0.03129946
-0.04706209 0.028846519 0.030990425 -0.0012491104 0.0016922093 -0.066733986 -0.005505132 0.03284736
0.011024621 -0.03518674 -0.12296172 -0.012525161 0.02636799 0.027138311 0.13294883 0.185969
-0.077899516 -0.078809656 0.05181901 0.0031692313 0.010155238 -0.0014916048 -0.017497964 0.052956756
0.06427602 0.18500875 -0.12846348 0.06030621 0.21278998 -0.18964203 -0.02403616 0.05666601
-0.040753294 0.09919499 0.06695218 -0.08581884 0.06936329 0.07225706 0.19926813 -0.21534444

fc1.bias f4 [400]
00000000: b8a3 37bd 7f34 8b3c 60bb 1b3d 8545 453d
00000010: 1d97 89bd 9601 fcbd 1052 39be 86b7 483d
00000020: 81b5 1cbe 23e9 00bc 36ba 073e abbe 44be
00000030: 868c 423e 78b4 fd3c ce12 a6be d96c 313e
00000040: acbb 073d d36b 4a3d eeb9 59bd d462 833d
00000050: 4676 7cbb e522 90bc caca f5bd 1fe7 4ebe
00000060: 9444 aebd d2f1 0fbe 3c93 36be e57c 423e
00000070: a76b 363e be36 8f3c d1ba f13d cc6d 233e
00000080: 22f4 243e 4c6c 1fbe e20b a03d 6f1a 363c
00000090: dd30 d0bd c7f9 ec3d baf4 563e 8f6e 573c
000000a0: a1ae 2f3e d5b6 313d 1b61 b13d 63c8 a63d
000000b0: 9da4 e63d 1a4d f53d 8cc2 bf3d b097 c93d
000000c0: 7e1b 303e bc16 e8bc 0fd6 c53d 596b 133e
000000d0: ec34 253e 4757 c23d 1ea6 04bd 36fb 5f3e
000000e0: 0412 3b3c f50f 8e3b 966f 32be b274 333d
000000f0: b9cd 94be 4882 04be 1e74 ec3d 7ced 913d
00000100: f64d b8bd f2e4 11bc 104e 9cbd b39a 3fbe
00000110: 42a1 1c3e c81a 943c c73f ab3b 8523 043e
00000120: c9c6 b03d 5a97 983d aa8c 193e 6377 543e
00000130: ac48 d7bd afda ccbd 4a35 113e 1cbb c3bc
00000140: dab9 8e3c e93e aa3c 220c 6a3d 55d4 ba3d
00000150: 62c7 f13d 57d0 923b 66a7 c43d 5b7a d33d
00000160: 6472 103e 27b7 c7bc 8688 16be 8ee1 6b3c
00000170: c259 0ebc c4a7 b63d 575a 9abd 0816 56be
00000180: 5596 65bd f58e 463d a403 a3bc 8ab4 e43d
00000190: 7860 ee3d 1bce 523d 493f 7bbc e230 d9bc
000001a0: c308 d2bc 4964 133e 2d6a 3e3e ae35 aabd
000001b0: ccba 963d 9817 83bc 512c 013e 2a6e ed3b
000001c0: dc6f dfbb 33e0 07bd fe87 2f3d 1841 953d
000001d0: 9c02 e93d 29a2 4abd ca7c ccbd ccfc 1fbd
000001e0: bbcf 0abe 118d babd e09e f5bc 5853 103e
000001f0: 3e35 67bd 9fb7 a53d 37f2 503d 5a01 e93d
00000200: 76fa f03d c3b6 ab3d d226 0bbe b791 283e
00000210: 3a84 413e 1f00 213e acdf d6bd 2bf8 c7bd
00000220: 4ecf 93be 5af9 283c 2206 b23d d61b 083e
00000230: 499e af3d 206b 5a3d 3903 913c 2f5c 7e3d
00000240: 35f5 e7bd 448b 0a3e 46aa 04be fa17 4cbb
00000250: 3e38 38be f6be 7fbc 563c 9abc 52f6 653d
00000260: 47fa b53d 0e97 9ebe 12aa d5bc 0df9 85bb
00000270: 2005 133e 278c 36be 90ca 15be 7de5 9bbc
00000280: 7c93 ff3c 8585 233e c047 013e a604 e53d
00000290: bbc2 013e 94c5 e6bd 9afd c83d 7ecd 603e
000002a0: be35 8cbd 0d55 e93c 1d4d ca3a ca1e 3dbe
000002b0: f56a 0abd 0d7a 89bd a108 3cbe 7771 083e
000002c0: fac7 e7bd ef43 e6bc f29d 923d 84a7 dc3d
000002d0: d57e 9e3c 4add 88bd 7e67 babe 60c2 85bd
000002e0: 7223 c5bc db44 39bd 18e5 fdbd f157 14be
000002f0: f7f3 2c3e e332 6e3e 1714 10bb cfb4 adbd
00000300: 9ae8 5bbd f681 e13d 093c 4b3c 5cf7 38ba
00000310: 0bd3 8dbd da57 0e3d 892e 8b3d 5c0d a3bc
00000320: 1b39 ff3d 5754 333d d1dd bbbd f2e6 54bc
00000330: 883b a6bd 8c4d 253e ac19 2b3d 4485 dd3c
00000340: 6dc8 eb3d 96ab e73d 4398 cabd 787f e03d
00000350: c0f8 d23d f7da ecbd 5448 093e 3e42 2f3d
00000360: 6e52 e2bd 9d7e e63d e51e ed3b 171b 263e
00000370: 7ba2 21bc 5a80 87bd 337f 14be 5c37 6ebe
00000380: 469c 3b3e 5600 d4bd 13c0 a43d 5503 53bc
00000390: 731b a8bc 3825 ad3c c605 023e 60a5 983d
000003a0: f287 a33d 583c f9bd 1e1a 88bd b472 263e
000003b0: 1875 b3bb 7011 57bd d764 67be aef9 57bb
000003c0: 57b4 ff3d cd6f 3ebe 6b2a bf3d 655d d23d
000003d0: 35f2 2dbe 68e7 52bc 1f3b c03d 484b 993d
000003e0: 1269 973c 7010 9abe 80f9 d53c 8864 bf38
000003f0: 48db 273a 0c40 26be 9ec3 1b3e c30e ff3d
-0.04483387 0.016992806 0.03802049 0.048162002 -0.06718276 -0.1230499 -0.1809771 0.049003147
-0.15303613 -0.007868084 0.13254628 -0.19213359 0.18998918 0.030969843 -0.32436222 0.17326678
0.033137962 0.049419235 -0.053155832 0.06415334 -0.0038522645 -0.017594764 -0.120015696 -0.20205353
-0.08509174 -0.14057091 -0.17829603 0.18992956 0.17814504 0.017482158 0.118032105 0.15959853
0.16108754 -0.15568656 0.078147665 0.011114701 -0.1016557 0.11571079 0.20991793 0.013148918
0.1715646 0.043387253 0.086610995 0.081436895 0.11261866 0.119775966 0.09363279 0.09843385
0.17197987 -0.028331153 0.09659969 0.14396419 0.1613347 0.09489303 -0.032384984 0.21873173
0.0114178695 0.0043353983 -0.17425379 0.04381246 -0.29063204 -0.12940323 0.11545585 0.07125375
-0.08999245 -0.0089046825 -0.07632077 -0.18711357 0.1529589 0.018079177 0.0052261087 0.12904175
0.08631665 0.07450743 0.14995065 0.20748667 -0.10511908 -0.10002648 0.14180484 -0.023892932
0.017422605 0.020781951 0.057140477 0.0912253 0.118056074 0.0044804025 0.09602241 0.10326072
0.14106137 -0.024379326 -0.14700517 0.014397038 -0.008688392 0.089187175 -0.07536762 -0.20906842
-0.05605157 0.04847618 -0.019899197 0.111672476 0.11639494 0.05146609 -0.015334913 -0.026512567
-0.025638944 0.14393725 0.1859519 -0.0831102 0.073598474 -0.016002461 0.12614562 0.0072457986
-0.0068187546 -0.033172797 0.0428543 0.07287806 0.11377451 -0.049471054 -0.09984739 -0.039059445
-0.13555805 -0.091089375 -0.029982984 0.14094293 -0.05644726 0.080916636 0.051012244 0.11377211
0.11766522 0.083844684 -0.13589028 0.16461836 0.18898097 0.15722702 -0.10491881 -0.09764131
-0.28869098 0.010313356 0.08692576 0.13291869 0.085751124 0.05332482 0.017701732 0.062099632
-0.113260664 0.13529688 -0.12955579 -0.003114222 -0.17990205 -0.0156094935 -0.018827599 0.056143112
0.08885627 -0.3097462 -0.026082072 -0.004088527 0.14357424 -0.17826901 -0.14628053 -0.019030327
0.031198256 0.15968902 0.12625027 0.11182527 0.1267194 -0.11268154 0.09813996 0.21953389
-0.06846188 0.028482938 0.0015434359 -0.18468776 -0.03379341 -0.067127325 -0.18362667 0.13324533
-0.113174394 -0.028108565 0.07159032 0.107741386 0.019347588 -0.066828325 -0.36407083 -0.06531215
-0.024064753 -0.04523168 -0.12397212 -0.14486672 0.1688994 0.23261599 -0.002198463 -0.08481752
-0.053688623 0.11011116 0.01240445 -0.00070559024 -0.06925019 0.03475175 0.06795985 -0.019903831
0.12462064 0.043781605 -0.091731675 -0.012994515 -0.081168234 0.16142863 0.04177253 0.027041085
0.115128376 0.11312024 -0.09892323 0.10961813 0.103013515 -0.11565202 0.13406497 0.042787783
-0.110508785 0.11254618 0.007236349 0.16221271 -0.0098653985 -0.06616278 -0.14501648 -0.23263305
0.18321332 -0.103516266 0.08044448 -0.012879212 -0.020520901 0.021135911 0.12697515 0.07453418
0.07984914 -0.12169713 -0.066456065 0.16254693 -0.005476605 -0.052506864 -0.22597061 -0.0032955217
0.12485569 -0.18597336 0.093342625 0.1027172 -0.16986926 -0.012872554 0.093862765 0.07485062
0.018482719 -0.30090666 0.026119947 9.126315e-05 0.000640322 -0.1623537 0.15211341 0.124539874

fc2.weight f4 [300, 400]
00000000: 75e3 78bd 88a9 a1bc 40c9 873d 3e7b 0cbe
00000010: 14f2 9c3d 41db e6be 160c 2ebe 428a a1bd
00000020: cbf8 fcbc af99 443d 0c38 073e ca0e 85bb
00000030: dee3 e93d 4124 bc3d 9c6e a63d c2d1 dabd
00000040: dc16 693d 7d53 113e 92cb 113e ac64 fa39
00000050: 3257 b6bd d71e 153e 3a0a f43d 7dce 09bd
00000060: 8e61 803d c21b 9b3d dc8b cbbe 10f4 7ebd
00000070: 8401 d6ba fc2c c23c 62ab 193e bc34 debc
00000080: 6cee 1ebd c100 213e 6564 cf3d 107d a03d
00000090: ab19 d33d f8ac a73d 5f09 153e b7b2 913d
000000a0: 88d6 583d ab64 943d 116d 513d 448c a23d
000000b0: 12ba c5bd 532d 333e e358 17bd 8839 26be
000000c0: ca47 5ebd c9f5 04be 8877 113e 9c44 54be
000000d0: 7b0a af3d 7384 bf3d b68a 163d 6616 f73c
000000e0: 3dc9 433c 7499 723d b7f7 b8be 0cc5 753d
000000f0: f3cc 783e 41df 8dbc 4310 3e3d 3da4 fe3d
00000100: 2060 393e 7e4b 09be 89e7 913d 078f 0e3e
00000110: 25b5 c13d 90e7 963c 3248 cb3d b378 8ebd
00000120: 3256 553d cf06 3cbd 0bed 11be 0d64 dc3d
00000130: 09b5 693c c964 16bd 0b53 ea3d a74f 453d
00000140: 0163 0c3e 8051 eebd 09a1 56bd 6309 223e
00000150: ae64 833d 725c 603d 82ff a03d 2e06 253d
00000160: 3de5 763d ef85 8abc 17d5 8f3c dfa7 923c
00000170: ff37 da3d 6bec 0d3e 847b 353e 127d 953e
00000180: 81eb d93d 716b 46bd edd0 8f3d 638c babd
00000190: 993e 4dbd bdd2 e7be 9abf c9bd c537 c6bd
000001a0: 073b c0bd 0a6a 8abe e5cb cdba 1022 cf3d
000001b0: 31ff 02bd 7b2f b0bd 7b9a d53d b55f 4dbb
000001c0: b86e 16be cfe2 87bc cf2f 82be 88de 843c
000001d0: baf3 abbd 1951 0e3d a852 66bd 7bb4 89bd
000001e0: e9a6 fcbd 87a2 a4bd 79f0 513c 5d1a 3ebc
000001f0: 5d92 0dbe a2fa 0ebe 4151 5fbd 4210 4e3e
00000200: 45bd feba 4883 bfbd 98b2 a73d 3f4e f7bc
00000210: e86f a43d 6728 063d 915a 7bbe 9c2c 493d
00000220: 7bf4 51bd ad5a b53c 350f 5b3e 0aa9 19bc
00000230: 1f11 1e3e 0ed9 62bd 930b 083d 19c3 0dbd
00000240: 7d91 00bc 0b49 9fbd 0537 25be 5e5c dfbd
00000250: 7d0a 7fbd be7b 0f3d 61f8 edbd 2f96 3c3d
00000260: 582f 813d 8ff7 ed3c 7693 6ebd d83b cf3d
00000270: 7b9f af3d 6d0e 8a3e 920f 123c 0db5 6e3d
00000280: b45c 45bd 82fd 43bc e5fd 323c f60f 70bb
00000290: b1d7 fc3d 98b9 b43d efb9 853d 9916 8d3d
000002a0: 9d1e 273e 0a00 c3bd 0af6 32be 650e 13be
000002b0: cc0b 003c c751 3c3d f87a af3d c377 c33c
000002c0: 008c a1bd d41d 4fbe 1335 1b3d 3973 9a3c
000002d0: a1ad bd3d 2148 b2be e1ff 91be d89d 053e
000002e0: 544c 123e d091 48be 339e 803d c53a c9bd
000002f0: b9c1 91bd 5728 37bc 5368 0ebd fb04 ecbc
00000300: aec1 3a3e 3f46 063e e80e b23d bd7a d83c
00000310: 4a23 943d 9ec4 b3bd a6a4 0cbc bbf7 a33a
00000320: 51e2 1dbc 6b9a 3fbd 7268 9ebd 4ace 10be
00000330: 48b9 38bd 0b1c 2ebe cac6 c33c dfff 35be
00000340: 1255 7ebd 6037 2f3d 7d42 40be aa3e 243d
00000350: f250 423d ff87 10be 4286 4d3b 83a4 9abd
00000360: 6822 0fbd 122a 773d e967 543d 2c64 8e3d
00000370: a6be 94bd f846 babc 7c43 edbd cb95 903c
00000380: 3c46 dd3c 37e6 e5bd eeee 32be 3ee9 87bd
00000390: a0aa 7dbd 5da6 c63c fa41 5d3c 6ea5 0bbd
000003a0: 0916 c63c 9a80 93be 066e 1f3d 6d99 0dbe
000003b0: af45 243d 7222 7c3d 169d 0c3e 933b 173e
000003c0: 0850 cebd d3bb 4fbe 23cd 08be 3e03 603d
000003d0: ced2 8ebe bfbe 4d3d 1c15 31be f5b8 9a3c
000003e0: 015d 283e eea7 aa3d 69f5 ec3d 7b9a 2cbd
000003f0: 3827 8d3c e8ec fdbd 5341 8f3d a5b7 e83d
-0.060763795 -0.01973416 0.06630182 -0.13718888 0.0766336 -0.45089152 -0.16996798 -0.07887699
-0.030880352 0.047998127 0.13204974 -0.004060601 0.11420415 0.091866024 0.08126566 -0.106845394
0.056906566 0.14192005 0.14237812 0.00047758722 -0.0890335 0.14562546 0.11916013 -0.03364419
0.06268607 0.07573654 -0.39755142 -0.062244475 -0.0016327356 0.02370309 0.15006784 -0.027124755
-0.038801596 0.15722944 0.101265706 0.07836354 0.1030763 0.08187288 0.14554356 0.07114165
0.052938968 0.072457634 0.051129404 0.0793691 -0.09654631 0.17497759 -0.036950003 -0.16232884
-0.054267682 -0.12984385 0.14205754 -0.20729297 0.08546921 0.093514346 0.03675338 0.030162048
0.011949834 0.059228376 -0.3612649 0.06000237 0.24296932 -0.01731837 0.046402227 0.1243367
0.18103075 -0.13407704 0.0712424 0.13921748 0.09458379 0.018420964 0.099258795 -0.06956615
0.052084155 -0.04590493 -0.14250581 0.10761271 0.014264354 -0.03671721 0.114416204 0.048171666
0.13709642 -0.11636639 -0.05239967 0.15823893 0.064156875 0.054775663 0.07861234 0.040289097
0.060277212 -0.016909568 0.017557664 0.017902313 0.10655212 0.13859718 0.17722899 0.29196984
0.10640622 -0.048442308 0.07022271 -0.09108808 -0.050108526 -0.45277968 -0.09850998 -0.09678606
-0.093862586 -0.27034026 -0.0015701024 0.10113919 -0.03198165 -0.08602806 0.104298554 -0.0031337563
-0.14690673 -0.016587643 -0.254271 0.016219392 -0.083960965 0.03474531 -0.05623117 -0.06723877
-0.12336523 -0.08038812 0.012813681 -0.011602965 -0.13825364 -0.13962796 -0.05452085 0.2012339
-0.0019435069 -0.09351212 0.08188361 -0.030188678 0.08029157 0.032753374 -0.24546267 0.04911481
-0.051258545 0.022137964 0.2139252 -0.009378681 0.15436219 -0.05538278 0.033214163 -0.034609888
-0.007847187 -0.07777604 -0.1613427 -0.109062895 -0.06226586 0.03503012 -0.1161964 0.046041664
0.06307858 0.02904871 -0.0582461 0.10118836 0.0857534 0.2696413 0.008914845 0.058278132
-0.04818411 -0.011962296 0.010924791 -0.0036630607 0.12345827 0.08824462 0.06529605 0.06889076
0.16320272 -0.09521492 -0.17476669 -0.1436096 0.007815313 0.045976426 0.08568376 0.023860818
-0.07888031 -0.20226222 0.037892412 0.01885377 0.09261633 -0.34820655 -0.28515533 0.13048494
0.1428693 -0.19586873 0.06280174 -0.098256625 -0.07117028 -0.011179051 -0.03476746 -0.028810969
0.18237945 0.13112734 0.086942494 0.026425714 0.07233293 -0.08777736 -0.008584177 0.0012509743
-0.009636478 -0.046778124 -0.07734765 -0.14141193 -0.045098573 -0.17002885 0.023898501 -0.17773388
-0.062092848 0.04277742 -0.18775363 0.040098824 0.047440477 -0.14114378 0.0031360541 -0.07550909
-0.03494492 0.060342856 0.05185691 0.069527 -0.07262926 -0.022738919 -0.11585137 0.017649552
0.02701103 -0.112255506 -0.17473957 -0.06636284 -0.0619303 0.02424925 0.0135045 -0.034093313
0.024180429 -0.28809053 0.038923286 -0.13828059 0.040105518 0.061556287 0.13731799 0.1476882
-0.100738585 -0.20286493 -0.13359503 0.054690592 -0.27895206 0.050230738 -0.17293209 0.018887023
0.16441728 0.08332811 0.11570246 -0.04213951 0.017230615 -0.12398702 0.069948815 0.113631524

fc2.bias f4 [300]
00000000: 956c 593b 6525 71bc 555f 7bbc f0e8 2b3d
00000010: 7ac1 573c b12b 7e3c 4904 cebd f489 973d
00000020: 7899 d53c 43af 4d3c d045 80bc 4d90 b1bb
00000030: 7d14 24bd b14d 51bc 368a cebc 6d3a 76bd
00000040: edf9 f93d bafa 803a 3885 5e3d ad84 a8bc
00000050: d985 00bd 4141 463d 8370 dc3c e1ea 353d
00000060: 80d5 0dbd 3bb9 8cbc 1114 da3c 4973 4b3d
00000070: da4f 523d 009c 933d 4ed6 00be dc2c 423c
00000080: 5b34 03ba 3cad bc39 70f0 4e3d 3a32 2bbc
00000090: 27dc 3b3d 68f7 2abd eaee e13c e95b f73b
000000a0: 70a1 5e3b 20c8 7b37 1c0c 753d 5cbc d2bb
000000b0: b2ae b43d 8c3f 2b3d d705 a53b 98d7 a6bc
000000c0: 62fa 71bc beed adbd 8938 08be ae50 f83b
000000d0: 7abc b03c 3620 35bc 419a a8bc 5225 debc
000000e0: ac3e 36bd 2caa c1bc a1f9 5abd abfe 0cbd
000000f0: da33 533d c69f 873c f80f dabc 9589 443a
00000100: 75c3 cd3d 4414 f13b 6410 193d 2b63 f2bc
00000110: 17e6 99bc 9471 a43b f646 7c3c e096 6cbd
00000120: e1cf 3dbb 291d 4fbd 4827 7c3d b008 19bd
00000130: 95d0 d8bd 3494 213d 3350 c53c ff9b 09bd
00000140: 7fbb 6ebd 9060 13bd dddf f33c a745 173e
00000150: 75f2 a6bc cf57 c93c 7160 65bd 0189 d0bd
00000160: 7c4e 9fbc acd4 703d 0862 4a3d f8ae a3bd
00000170: c246 183e f1af a13c 84a2 073c d3a0 7b3d
00000180: c65a b4bd 897a 21bd 8d65 dbbc d218 d23d
00000190: be31 e03c 5761 403c 9fc3 38bd e4f3 40bb
000001a0: 2ce5 17bd 0907 89bc c0bb a8bb 1a2c a739
000001b0: 279a 7fbc bcc5 533d 7fbd 19bd 81df 183d
000001c0: 2476 2b3d 18a5 943c 7757 713b 104b 12bc
000001d0: b285 843d 9c99 54bc 6bb6 673d 4d35 d23c
000001e0: eef9 7b3d 4943 1f3c 9dcd 8a3d 068c 3b3d
000001f0: 29f1 353d 8203 69bd 5ebd 34bb 5cab 2b3c
00000200: 63bf 78bd c702 ed3c d4ea 6dbc 3988 b13d
00000210: d478 67bc 940a 41bd c043 253d e1e9 5f3b
00000220: b65e f7bc eca6 2d3d e175 0b3d 12cc 0e3e
00000230: 0347 963c df00 e5bc c181 81bd c0c5 253d
00000240: 35b9 aebb a57d c33c 8746 5abc 1cfc 97bd
00000250: 17e6 973d 3016 eb3d a3ca 55bd 46b8 babc
00000260: 02ac 193d b72a 58bb 36af 19bd ca30 9cbb
00000270: 64f5 aebc 445c fa3d fab0 17bc 6a65 ae3d
00000280: 28f8 713d b673 c5bc f91f 58bd 5b86 b9bc
00000290: d0ef 293a 8c87 6cbd c1eb 86ba 2279 3b3d
000002a0: d8ab 7338 cbf8 de3d 27f2 1a3d b52d 46bd
000002b0: 79cd e6bc f57e 92bc b2e8 6ebc 1476 adbd
000002c0: e43c 9e3d 77de 543d 5de6 3ebd ccfd f13c
000002d0: 42d4 4c3d 8602 293d 31e0 813d 6b00 a0bd
000002e0: 270f 32bc 12cc dd3d d5f5 013c 32c7 133d
000002f0: 58cf b9bd 51d7 d0bc 362a 99bc 7e0d 193e
00000300: a7d8 d9bc 09fb 383d 43ae 283c 4731 5d3b
00000310: 5442 f13c d6ab de3b d6c6 11bc fbc3 c53d
00000320: 106c 533d 7e33 2cbc 454a 80bd c829 583c
00000330: 8a9d 043c 0bea 613d c51e a53d 229d 553d
00000340: b7dc 74bd 2ea7 6a3c f20e ee3c be2c 9a3c
00000350: 485c fbbc ad83 23bd 2b3c 56bd e80d d63c
00000360: 8868 3b3c f3c0 66bd 6112 203d 4d62 073d
00000370: 8f9e e8bc bdf2 f6bd 8641 87bc b236 0ebd
00000380: 4246 813d 7485 bdbd 8005 5dbc 2907 ebbc
00000390: 3157 7fbd 2cb8 c8bb fa0e 383d ce05 18bd
000003a0: b289 a83c 5c2a a63c dfc9 453c b5f6 eabd
000003b0: 2574 5cbd 5a51 2dbc ebb6 413d 6258 5bbd
000003c0: bb9b 0fbd b18e a63d c17f 2c3d d555 8abd
000003d0: 5249 af3d 85e7 373d d8c3 ef3c c173 4d3d
000003e0: 6a0a c83c 8670 32bd c8d6 423d 688a 833d
000003f0: 2954 02bd 75d4 b23c 3f48 a63c 04cf 03bd
0.0033176292 -0.014718388 -0.015342553 0.041970193 0.013168687 0.0155133465 -0.10059411 0.07399359
0.026074156 0.012553993 -0.01565829 -0.0054188133 -0.0400586 -0.012774871 -0.025212388 -0.060114313
0.12205873 0.0009840347 0.054326266 -0.020571077 -0.031377647 0.048402075 0.026909119 0.04441345
-0.034627438 -0.017178169 0.026620897 0.04967049 0.051345684 0.07207489 -0.12581751 0.011851516
-0.0005005055 0.00035987224 0.050522268 -0.010448987 0.04586425 -0.04173985 0.027579743 0.0075487983
0.0033970736 1.5007361e-05 0.059826 -0.0064311456 0.08822383 0.04180865 0.0050360966 -0.020366475
-0.014769169 -0.08492611 -0.13302816 0.007577977 0.021574248 -0.011055043 -0.020581366 -0.027117405
-0.044493362 -0.023640715 -0.05346072 -0.034422558 0.05156312 0.016555678 -0.026618943 0.0007497308
0.10047046 0.007357152 0.037369147 -0.029588303 -0.018786473 0.0050184224 0.015397778 -0.057761073
-0.0028963017 -0.05056492 0.0615609 -0.0373618 -0.10586659 0.03944798 0.024086094 -0.033596035
-0.05828428 -0.03598076 0.029769832 0.14772664 -0.020379284 0.024578003 -0.056000177 -0.101823814
-0.019446604 0.05879657 0.049409896 -0.07992357 0.14870742 0.019737216 0.008278493 0.06143267
-0.08806376 -0.0394235 -0.026781822 0.1025864 0.027367469 0.011741958 -0.045108434 -0.0029442245
-0.03708379 -0.016726987 -0.0051493347 0.0003188558 -0.015600718 0.051702246 -0.037534233 0.037322525
0.041860715 0.01814513 0.0036825815 -0.008929029 0.06470813 -0.012976076 0.05657045 0.025660181
0.06151765 0.009720632 0.06777499 0.045787834 0.04441944 -0.05688811 -0.0027578692 0.010477867
-0.060729396 0.028931988 -0.014521319 0.086685605 -0.014127929 -0.04712923 0.040347815 0.0034166502
-0.030196529 0.042395517 0.034047965 0.13945034 0.018344408 -0.027954517 -0.06323577 0.040471792
-0.005332137 0.023863623 -0.013322479 -0.07421133 0.07416933 0.11478841 -0.052195203 -0.022792947
0.037517555 -0.0032984444 -0.03752061 -0.0047665583 -0.021357246 0.122246295 -0.009258503 0.08515437
0.05907455 -0.024103027 -0.052764867 -0.022647073 0.0006482573 -0.057746455 -0.0010293649 0.045769818
5.8095757e-05 0.10887297 0.03782859 -0.048383433 -0.028174149 -0.017882803 -0.014581846 -0.08469787
0.07726458 0.05196997 -0.04660641 0.029539965 0.050007112 0.041262172 0.06341589 -0.0781258
-0.01086787 0.10829939 0.007932146 0.03607864 -0.09072751 -0.025493296 -0.018696886 0.14946553
-0.026592566 0.04516128 0.0102954535 0.0033751295 0.029450573 0.006795387 -0.008897504 0.09656521
0.05161673 -0.010510324 -0.06264166 0.013193555 0.008094201 0.05515484 0.080625094 0.052151807
-0.059780803 0.014322085 0.02905986 0.018820163 -0.030683652 -0.039920498 -0.052303474 0.026129678
0.011438496 -0.056336354 0.039080027 0.03305273 -0.02839592 -0.120580174 -0.016510736 -0.03472013
0.06312229 -0.0925397 -0.013490081 -0.028689938 -0.06233901 -0.0061254706 0.044936158 -0.03711491
0.02057347 0.02028387 0.012072056 -0.11472837 -0.0538217 -0.010578478 0.047293585 -0.053551085
-0.035060626 0.08132685 0.042114023 -0.067546524 0.085589066 0.04489853 0.02926819 0.05015922
0.024419028 -0.043564342 0.047568113 0.06422883 -0.031818543 0.021829823 0.020298121 -0.032179847

fc3.weight f4 [4, 300]
00000000: 71af ab3e d8a9 9c3e ea77 443f 69a2 42be
00000010: 3832 44be 307e 85be e612 0f3f 457e 8abe
00000020: 400d 9a3e 62c1 4f3d 409b e93e 5cc4 80be
00000030: ceca de3e 10bd 633e 14a3 cfbe c820 b7be
00000040: 2cb4 003d e4b6 9f3e f438 28be cdbc f1bd
00000050: 16e4 22bf 83d7 34be 50ed 2cbe b887 f13e
00000060: 0d8f 353f af26 0d3f 5b2f 55be ffe5 093f
00000070: 0617 78be 190c 42be 148d afbe 268a 3ebe
00000080: bb8e 17bf 329b 0a3f e17d e43f 90a1 0c3e
00000090: af75 5abe 921a 853d e70b 3cbe 2948 31be
000000a0: 12fb b73e c908 563e 8236 983f 7e52 063f
000000b0: 2f39 bebe 0d67 8b3e 3e43 453f 4f0f a43f
000000c0: 9b7c 58bf cefa 993e 57b1 f3be 313d d7bd
000000d0: c3b3 bebe f73c d6bd 6f7e 003e f1f0 adbd
000000e0: bb1d 1cbe 2d7f 38be 636a 39be 7fca e33d
000000f0: d46b 44be 1656 4cbe fa7a 7d3f 90fe 9bbe
00000100: 2830 fdbd 1086 85be b526 2f3e 2f26 5d3e
00000110: 096c e13f dbbd 6d3e 494d b2bd 6ebb b2be
00000120: 1d03 aabc 95a2 393e 2da2 b03e 771c 213e
00000130: 0491 29bf 13c3 103f 98de 50be 2517 6bbe
00000140: 4df0 2a3e c5d3 7a3f 9b2d 423e 70d6 7f3d
00000150: 9bf6 e7bd e2bd 0a3f 8ccd b63d 58bc 013e
00000160: 3b28 4dbe 925f 8abe f0f2 2dbf 3c60 c33d
00000170: 1087 9fbc b40a 4dbe 5678 28bd 749d 21be
00000180: 4eb9 833e 7591 fc3e 4653 d7be 8fb1 623e
00000190: a723 b5be d02a d4be 4924 0bbd e350 3dbe
000001a0: 37d1 5cbd 3890 0fbe b346 61be 13c2 00be
000001b0: e7c7 b6be d480 28bf 0800 6ebb c817 64be
000001c0: efc1 88bd 0223 233f a247 35bf a9ab 0b3f
000001d0: 554f ec3b f629 bcbe 150d 033f 6097 a23e
000001e0: 57c6 4a3f 2221 d6be e9ca 2ebe c1e8 a63e
000001f0: f102 51be 05e3 14be b80e 1dbe 8d98 40be
00000200: 7f28 1f3f 7186 363f b5e4 59be e426 923d
00000210: 037a b33c ed13 093d 10b9 82be ca34 a3be
00000220: 9196 6cbf 1c77 4c3d fd47 303f a3b1 c3bf
00000230: 80dc b03f fe58 39bf 2c67 ae3e ef10 43bd
00000240: 2c3a 69bd 3dfe c2bd 366e 223e 5cd2 68bf
00000250: 5875 80bf 6614 633f 463e e7ba fadb bd3e
00000260: 23d0 d0bd c5c7 ed3f dc80 963e 6afd 95bd
00000270: ec79 013f 7491 6d3d 08e7 64be 9a6c e93d
00000280: 11e1 633f f20e 273e 386d 27bc 0d81 a13e
00000290: 26c0 26be 8c87 e33e 99de a8bc 1624 e3bd
000002a0: 038a 59be af19 8a3d cc0e f63c 1b08 043f
000002b0: bf16 afbd 615b 083f 70ee b73e 882f 413d
000002c0: 1611 86be efd3 12be ed6a 703f 0941 e83e
000002d0: 3045 433f 281d 273f 1b46 b2bf 059a edbe
000002e0: 1fd1 143f 7e8d 293d d2f4 3dbe 9ab5 53be
000002f0: 2d66 1e3e 1dc3 05be fd17 51be 8bc2 c53c
00000300: 098a 8bbe bad4 11bf f08d 67be 0e5c ad3e
00000310: c54e 1e3e c5f8 abbd 40da 02be 6c2c abbe
00000320: 102e 13be d8e3 36be db7d 12bc e715 693d
00000330: 9d0c 913e 1cc4 203f 0686 d4be a8b4 8e3b
00000340: d361 383e 5471 ccbc c90c 363e 6a08 9d3e
00000350: eeb0 e83c 4e99 293e fa66 803d 4627 483d
00000360: c2f7 ac3e 456d 84bf c31d 8cbe 37e7 853f
00000370: 432b 893f c0e0 633e f9d5 423e 6e79 b63e
00000380: f0d8 e0bc 36f0 9e3e 2796 f03e b4b2 493e
00000390: 9708 ae3e 0ea8 aebe 95e5 5dbe eb14 7d3f
000003a0: 8409 ad3f 4d37 17bf 87bd 2fbe 9c62 403e
000003b0: f43f 383f bbc5 9cbd d492 9f3f 8948 543f
000003c0: d2f9 a13e d2dc d83d 35d0 ed3e 28e4 d6be
000003d0: 4b38 2b3f a2aa b5be 0332 95be 6cea f53e
000003e0: d761 543e 1764 9dbe d0fd e0be 36dd fa3b
000003f0: 9211 40bf a504 c8bc 0155 dfbd 3641 383f
0.3353229 0.3059833 0.76745474 -0.19007267 -0.19159782 -0.26072836 0.5588821 -0.2704946
0.30088234 0.050721534 0.4562626 -0.2514981 0.43514103 0.2224009 -0.40554106 -0.35767198
0.031421825 0.31194222 -0.16427976 -0.11803589 -0.6362928 -0.17660336 -0.16887403 0.47173858
0.70921403 0.5513715 -0.20818846 0.5386657 -0.24227533 -0.18949927 -0.34287322 -0.18607387
-0.59202164 0.5414306 1.7850915 0.13733506 -0.21333955 0.064992085 -0.18363915 -0.17312683
0.3593374 0.20901789 1.1891634 0.52469623 -0.37153003 0.2722706 0.7705573 1.2817172
-0.8456513 0.3007416 -0.47596237 -0.10509718 -0.37246522 -0.10460847 0.1254823 -0.084932216
-0.15245716 -0.18017264 -0.1810699 0.111226074 -0.19181758 -0.19954714 0.9901577 -0.30467653
-0.12362701 -0.26078844 0.1710461 0.21596597 1.7611095 0.23216955 -0.08706147 -0.34908623
-0.020753438 0.18128426 0.3449873 0.15733515 -0.662369 0.5654766 -0.20397413 -0.22958048
0.1669323 0.97979385 0.1896271 0.062460363 -0.11326333 0.5419599 0.08925924 0.12669504
-0.20034878 -0.2702604 -0.6794882 0.095398396 -0.019473583 -0.20023614 -0.041130386 -0.1578272
0.25727314 0.49329725 -0.4205572 0.22138046 -0.35378763 -0.41438913 -0.03397015 -0.18487887
-0.05391046 -0.14019859 -0.21999626 -0.12574033 -0.35699388 -0.65821576 -0.0036315937 -0.22274697
-0.06677615 0.6372529 -0.7081243 0.5455881 0.0072116056 -0.36750764 0.51191837 0.31756115
0.7920889 -0.41822153 -0.17069592 0.32599452 -0.20411278 -0.14539726 -0.15337646 -0.18808194
0.6217117 0.7129889 -0.21278651 0.07136324 0.021908766 0.03346627 -0.25531816 -0.31876212
-0.92417246 0.04991828 0.68859845 -1.5288585 1.3817291 -0.72401416 0.3406309 -0.04762357
-0.056940243 -0.09521148 0.15862355 -0.9094598 -1.003581 0.88703 -0.001764246 0.3708189
-0.10195949 1.857659 0.29395187 -0.073237255 0.50576663 0.058000043 -0.22353756 0.11397667
0.890153 0.16314295 -0.010218911 0.3154377 -0.16284236 0.44439352 -0.020613955 -0.11090867
-0.21244054 0.0674318 0.030036353 0.5157487 -0.0854926 0.53264433 0.359241 0.04716447
-0.2618491 -0.14338659 0.93913156 0.45362118 0.76277447 0.65278864 -1.3927644 -0.4640657
0.58131593 0.041394703 -0.18550423 -0.20674744 0.15468664 -0.13062711 -0.20419307 0.024140617
-0.2725375 -0.5696522 -0.22612739 0.33859295 0.15459736 -0.083970584 -0.12778568 -0.3343233
-0.1437304 -0.17860353 -0.008941139 0.056905653 0.28329936 0.6279924 -0.41508502 0.004355032
0.18006067 -0.024956383 0.17778315 0.30670482 0.02840468 0.16562387 0.06269641 0.04886558
0.33782774 -1.0345846 -0.27366456 1.0461186 1.0716327 0.22253704 0.19026937 0.35639518
-0.027447194 0.3104264 0.46989557 0.19697076 0.3399093 -0.3411259 -0.2166961 0.98860043
1.3518529 -0.5906876 -0.17162143 0.18787616 0.71972585 -0.076549016 1.2466683 0.8292318
0.3163591 0.10588993 0.46447912 -0.41970944 0.6688277 -0.35481745 -0.29139718 0.48030412
0.20740448 -0.30740425 -0.43943644 0.007655765 -0.7502681 -0.024416277 -0.10904885 0.71974504

fc3.bias f4 [4]
00000000: 7b66 7abd 73f1 c33d b1ae 7b3d 8b18 923d
-0.06113289 0.09567537 0.061445896 0.071335874

bn.weight f4 [33]
00000000: 908e 383f 975d ae3f fd6f 3a3f 0d14 883e
00000010: 7a01 7d3e 255c fe3d 6b83 b13d 0fa8 063f
00000020: e11c d33e ba4b 1e3f 8c10 cb3e 34ae 413f
00000030: 6507 133f 274d 983f 6012 763f d0d7 8e3f
00000040: 59d6 8d3d e246 e63d 83fe 1d3d 2071 fdbb
00000050: c19c 873f deda fa3e 5129 023f e864 9a3f
00000060: f9a3 3b3f 211c 4f3f f501 8d3f 980a a13e
00000070: 3f63 b03f 9d1f 7f3f e615 263f 5c1c 5b3e
00000080: 8fa7 eb3f
0.72092533 1.3622311 0.7282713 0.26577798 0.24707595 0.12419919 0.08667644 0.5260019
0.4123297 0.618343 0.39661062 0.7565644 0.5743316 1.1898545 0.9612179 1.1159611
0.06925649 0.112439886 0.0385728 -0.007734433 1.0594712 0.48995107 0.50844294 1.2062044
0.7329708 0.80902296 1.1016222 0.31453395 1.3780288 0.99657613 0.64877164 0.21397537
1.841051

bn.bias f4 [33]
00000000: 7ca8 0c3d d52a 7dbe 2996 84bc b53c 2e3e
00000010: ce6b f23d c308 0fbe 917e 10bd 7180 01be
00000020: 65a7 be3d bbbb 153d 763f 41bd 457c 07be
00000030: d4da 6a3e f879 8e3d ea10 56bd c634 a3bd
00000040: 2f6b e3ba 7889 4ebd 84e1 73bd 4895 d93d
00000050: 5420 793d 150d e03d cdda 75bd 339e 7cbd
00000060: 3095 f63c 1a74 813d e157 e0b9 c65a 893e
00000070: ac2a e3b8 c492 893e 4bcc 7bbe b066 83be
00000080: f42c b53c
0.034340367 -0.2472337 -0.016184883 0.17015345 0.11836968 -0.13968186 -0.035276953 -0.12646653
0.09309272 0.036555987 -0.04717966 -0.13230999 0.22935039 0.069568574 -0.052262224 -0.0796905
-0.0017350669 -0.05042407 -0.05954124 0.10624176 0.060821846 0.10939995 -0.060023118 -0.061674308
0.030100435 0.06320973 -0.00042790084 0.26827067 -0.00010832152 0.26869786 -0.2458965 -0.25664282
0.022116162

bn.running_mean f4 [33]
00000000: 4c4f 1d3f f59e 0ec0 e3db 9dbf fced 523f
00000010: 143b 8f3d 1acb d23c 6f8d 4abe a47c 043c
00000020: 1885 f9bb a767 193a f09b 333c f2b5 9c3b
00000030: 1a5a 8abc 744d bf3e 7a7d 44c0 6343 84bf
00000040: dcbc 753c db72 81bc 161f cfbb 15f1 43bc
00000050: 8572 2d3e bd39 1dbb 1eac 233e a1d4 413c
00000060: fa30 f03d 60f5 0b38 3a73 173d fcff 7fbf
00000070: ab5c f9bc 0000 0000 fcff 7f3f 0000 0000
00000080: 340f 7bbb
0.6144912 -2.228452 -1.2332729 0.82394385 0.0699369 0.025731612 -0.19780515 0.008086357
-0.007614743 0.0005851932 0.010962471 0.0047824318 -0.016888667 0.3736378 -3.0701585 -1.0333065
0.014998641 -0.015801838 -0.0063208444 -0.011959334 0.16938217 -0.0023990714 0.15983626 0.01183048
0.117280915 3.3368706e-05 0.036975123 -0.99999976 -0.030439695 0.0 0.99999976 0.0
-0.0038308622

bn.running_var f4 [33]
00000000: 2b21 8640 0327 b43f 11f8 6640 fcfc a43d
00000010: 2ba4 903d dde7 9f3c 7d63 d83d aeef c13e
00000020: d201 a23d a750 013e 54a0 2540 2bc4 0640
00000030: be0c 0d40 8739 a741 d820 1e40 5158 9941
00000040: 1c50 433e a07a 8f3e b5b8 2d3e 2c96 b73e
00000050: ba52 7940 5b9c 243f 1eda 823f 4d6f 0e41
00000060: f19a 4240 22fa 0f41 79e8 0042 0400 0000
00000070: ec1b fe41 0400 0000 0400 0000 0400 0000
00000080: a0a8 af3e
4.191549 1.4074405 3.6088908 0.080560654 0.070625626 0.01951974 0.10565851 0.37878174
0.079105034 0.12628423 2.5879107 2.1057231 2.2039027 20.90309 2.4707546 19.168123
0.19073528 0.28023243 0.16964991 0.3585676 3.8956742 0.6430108 1.0222814 8.902173
3.0407069 8.998568 32.227024 6e-45 31.763634 6e-45 6e-45 6e-45
0.34308338
