p2_continuous-control/checkpoint_critic.pth (torch_old, 543459 bytes, 9 tensors)

fc1.weight f4 [400, 33]
000000 b8 f0 8b 3e 0c 61 bc be a4 bd 20 be 23 36 e4 3d
       0.2733209 -0.3679279 -0.15697342 0.11143138
000010 03 29 c1 3e 7e de 0a 3e 59 ae 47 be 76 6e c3 bd
       0.37726602 0.13561437 -0.19500102 -0.09542553
000020 c5 99 23 3e fc a0 58 3e 1e 6c 0f bf 2a e7 6c 3e
       0.15976627 0.2115516 -0.5602435 0.23135057
000030 e4 2b d4 be f1 84 84 be 2f e4 07 3e 28 fc 6b 3e
       -0.41439736 -0.25882676 0.13270639 0.23045409
000040 18 cd 07 3e b8 df b1 bd 7d 8b 02 be 0b 71 a3 bd
       0.13261831 -0.08685249 -0.12748523 -0.079805456
000050 d5 fb d4 be 8e 34 a7 3e d7 84 72 bf e0 70 23 3e
       -0.41598383 0.32657284 -0.9473395 0.15961027
000060 7f ab 14 3d f5 4c 1a 3e be 0b df 3d 57 f3 cc bd
       0.036296364 0.1506842 0.108909115 -0.10007351
000070 6c b3 6f be 1d d4 70 3d dd 9d d1 3c d9 d2 0c bd
       -0.23408288 0.058796037 0.02558797 -0.034380767
000080 fb 9f 50 bd f4 3d 96 bd ef 87 99 bf 92 63 63 3e
       -0.05093382 -0.07336035 -1.1994609 0.22205952
000090 de 6e b1 3e 56 a4 d8 3e cb ea 60 3e c5 94 30 3e
       0.34654897 0.42312878 0.21964566 0.17244251
0000a0 b0 e8 c9 bd 4a 4c c4 3d 42 d7 cc be 29 76 67 3e
       -0.09858835 0.095848635 -0.4000798 0.22603668
0000b0 49 66 04 be 8d 68 c6 3e f3 a6 3b 3e 53 4d 36 3f
       -0.12929644 0.3875164 0.18325405 0.7121174
0000c0 55 2e 1f bf b6 6f a5 3e 3e e6 c8 3e 3b 15 6d bd
       -0.6218007 0.3231179 0.3923816 -0.057881575
0000d0 b2 ce 26 3e 20 c2 09 3d da 60 11 3e e8 ce ed be
       0.16289786 0.033632398 0.14197102 -0.4644692
0000e0 be c7 4d 3d 0e 04 3c 3e 1f 00 93 be ee 4e a3 bd
       0.050239317 0.18360922 -0.2871103 -0.07974039
0000f0 bc 1e 9a 3b 9b c7 b1 3d 02 39 5c bd 3c da 97 bd
       0.004703371 0.0868065 -0.053765304 -0.07414672
000100 59 0d 04 bc a7 5f ae 3d 81 ab 1d 3e 7b a5 12 bd
       -0.008059823 0.08514338 0.15397455 -0.035802346
000110 8f fe 3f 3d 6f fd e3 3e 9b 21 5f 3e 92 b1 65 bd
       0.046873625 0.44529292 0.21790163 -0.056077547
000120 d8 39 04 be 14 42 8b 3e 7b ac 5b 3d 31 51 3b be
       -0.1291269 0.2719885 0.053631287 -0.18292691
000130 f4 58 b0 3e 16 da b5 3c e3 55 9d 3c 32 eb 52 be
       0.34442866 0.022198718 0.019205993 -0.20597532
000140 4a 21 30 3e 9c b0 a2 3d 91 33 f2 bb 37 13 a4 be
       0.17200199 0.07943842 -0.007391401 -0.3204591
000150 6c a9 bd 3d f0 17 b9 3d a1 6b 1f bd 6d 6e 26 be
       0.0926083 0.09037769 -0.038921002 -0.16253062
000160 b9 b6 f8 bb f9 58 ab 3d ee ef 96 3d 5c f3 38 3c
       -0.0075901416 0.083665796 0.07369982 0.01128849
000170 6c ce 0b 3f d3 42 db bc 05 1f 0e bf 62 33 02 3c
       0.5461185 -0.026765263 -0.5551608 0.007946821
000180 40 32 8f 3b c2 ba a0 3b 8d e6 0d 3f e2 b6 30 be
       0.004370004 0.0049050758 0.5542992 -0.17257264
000190 98 62 70 3d 28 cb 86 3e f0 e7 fc be e8 31 a2 3e
       0.058687776 0.2632687 -0.49395704 0.316787
0001a0 db cc 30 3e 1d 6f 2a bd 6b 69 26 3f 24 e6 57 bd
       0.17265646 -0.041609872 0.65004605 -0.052709714
0001b0 87 1f eb be ac 90 9f bf 07 d1 69 3e be 57 48 3f
       -0.4592249 -1.2466025 0.22833644 0.78258884
0001c0 36 51 cf 3e ed 9e bb 3c a7 59 8f be 5d c5 c4 be
       0.40491647 0.02290293 -0.27998087 -0.38431826
0001d0 15 be a3 3d 84 3c 38 be 2b 56 18 3e fb 9b 72 be
       0.0799524 -0.17991835 0.1487662 -0.23692314
0001e0 60 94 19 be ef 12 da 3e 83 48 02 3e 64 5a 8e be
       -0.14998007 0.4259257 0.12722974 -0.27803338
0001f0 c9 c0 13 3f 62 b9 34 3d 0b 42 53 bc 24 e8 f7 3d
       0.5771604 0.044122107 -0.012894164 0.12104824
000200 1b 81 84 3c 8c 27 6c bd 9e 52 6d 3c 69 93 33 3e
       0.016174844 -0.057654902 0.0144850295 0.17536701
000210 53 74 9c 3d 03 85 90 bc ac fa 11 bf b8 29 b4 be
       0.076393746 -0.01764155 -0.5702312 -0.3518808
000220 6d af 0d 3c 31 5a 76 be cb 70 05 3e 63 42 97 3e
       0.008647782 -0.24057843 0.13031308 0.29542837
000230 f9 46 dd bc 60 9a fc 3e 31 96 66 bd 90 e9 6b bd
       -0.027011381 0.4933653 -0.056295577 -0.05759579
000240 42 08 8b 3c 8f ee 46 be 39 ce 26 3e 44 d2 37 3f
       0.016971711 -0.1942694 0.16289605 0.71805215
000250 91 7f 38 3e 35 fa 8e 3e 4b 6e 33 be 8a 01 16 3e
       0.18017413 0.27925268 -0.17522542 0.14649025
000260 9e 73 33 bf 71 ac c2 be 0a 78 12 bf 58 8c 9a 3c
       -0.7009829 -0.38022187 -0.57214415 0.01886575
000270 6a 69 5f 3e 44 a2 ae be 34 06 60 3e 97 c7 4b 3d
       0.21817556 -0.34108174 0.21877366 0.04975089
000280 3a 3f b6 be 3c 63 81 bd 25 e6 71 3b cb 48 2a 3b
       -0.35595113 -0.063177556 0.0036910858 0.002598333
000290 2e 74 d1 3c e7 7e ae be 41 92 6b bd 18 e7 fb bd
       0.025568094 -0.34081194 -0.057512525 -0.12299937
0002a0 ea 2c c1 be 48 50 e9 3c 8a 4d 01 3e 85 f6 9b bd
       -0.3772958 0.028480664 0.12627235 -0.07615379
0002b0 ec 9e ab be 88 ea 46 be c3 c0 b8 be 91 6a 74 be
       -0.33519685 -0.19425404 -0.36084566 -0.23868777
0002c0 e1 f1 bd be 3b f8 6f 3d 5c 65 55 3e 8a 1f 17 3d
       -0.370986 0.05858634 0.20839447 0.036895312
0002d0 4b 51 e9 3d 37 e3 91 be 9b 73 99 bf e2 1c 32 3f
       0.113924585 -0.28493664 -1.1988405 0.6957532
0002e0 7e 07 11 bd 19 76 cf be 3a 56 4e be cf ec c9 be
       -0.035407536 -0.4051979 -0.2015008 -0.39438483
0002f0 39 99 4f 3e 11 62 45 be 7b 3c a1 bd 10 91 27 bd
       0.20273294 -0.1927569 -0.07872864 -0.040909827
000300 9b 08 88 bb 65 ae a7 3e a4 fa d1 3d d2 e6 2b 3d
       -0.0041514165 0.3275024 0.10252884 0.041968174
000310 37 b9 94 ba 6a 1a 83 3e fe 77 d1 be e8 38 ad 3d
       -0.0011346702 0.2560609 -0.4091186 0.0845812
000320 c9 04 2a be 6f f9 3d 3d eb 5b 83 be 4a a8 11 bf
       -0.16603388 0.046380457 -0.25656065 -0.56897414
000330 53 0b 83 3d 70 f9 31 3d 56 d3 ee be 1c 15 de be
       0.06398644 0.043450773 -0.46645612 -0.4337548
000340 ec 6e 71 be a3 e9 e7 bd 75 76 cc 3e 88 e6 8e 3e
       -0.2357747 -0.113238595 0.39934126 0.27910256
000350 95 ae fe bd 4b 3d 14 3f 39 7b 91 3c 20 01 e8 3e
       -0.12435643 0.57906026 0.017758952 0.45313358
000360 ab 88 62 be 94 5e 51 3e 1f d2 9b 3e 51 26 0b be
       -0.22122447 0.20446235 0.30433747 -0.13588835
000370 74 f1 b9 3e 06 01 69 be 83 bf 92 bc c0 2c 25 3e
       0.36317027 -0.22754297 -0.017913586 0.16130352
000380 22 83 c1 bd f1 71 1f 3d f2 93 78 bf 21 d0 7a 3d
       -0.0944884 0.038927022 -0.97100747 0.061233643
000390 7e a5 5d 3b 3d af 33 3d 63 f4 45 be 27 89 5e 3d
       0.0033820565 0.043868292 -0.19331507 0.054330017
0003a0 62 20 8a 3e b9 ec f7 be 54 f9 a0 be 03 f2 d3 be
       0.2697783 -0.48422793 -0.31440222 -0.41395578
0003b0 26 b7 18 3e 53 84 c3 3e cf 40 dc 3e ad 2e c1 3d
       0.14913616 0.38186893 0.43018195 0.09432731
0003c0 1d 36 05 be 0f 24 48 bd 1f 96 35 3f ed 8f 73 be
       -0.13008924 -0.048862513 0.7093219 -0.23785372
0003d0 96 18 ed bd a7 43 46 bc b8 a2 43 3f ea d5 88 3b
       -0.11576955 -0.0121010905 0.76420164 0.004175891
0003e0 38 bd d8 bd d4 1d 3f 3e d0 32 cc bb 39 82 46 be
       -0.105829656 0.18663722 -0.0062316433 -0.19385614
0003f0 f3 33 5d bd 54 8c c0 bc 3f 05 2b 3e c5 fb 27 be
       -0.05400462 -0.023504414 0.1670122 -0.16404636

fc1.bias f4 [400]
000000 79 48 94 3d b2 11 15 be db b5 c8 bd 00 9e 20 bf
       0.072403856 -0.14557531 -0.09800311 -0.6274109
000010 0b 6f f3 bd 9f 2a ef be a1 4e e5 be ec 3f 18 bf
       -0.11886414 -0.46712205 -0.44786552 -0.5947254
000020 1d 78 2b bf 49 d0 31 bf 20 96 84 bd 7d 38 2f bf
       -0.66980153 -0.6945844 -0.064739466 -0.6844557
000030 4a a6 3a be 38 80 24 bf 59 ab 01 bf 83 53 05 bf
       -0.18227497 -0.64258146 -0.5065208 -0.52080554
000040 19 f6 11 bf 07 ad c8 be ae 66 10 bf 19 c7 8f be
       -0.5701614 -0.3919451 -0.56406677 -0.28081587
000050 5b 32 b8 be 6b b5 ff be 80 57 c8 be 29 56 84 be
       -0.35975918 -0.49943098 -0.39129257 -0.25846985
000060 b8 91 20 bf 77 58 1e bf d9 08 18 bf ae a6 74 be
       -0.6272235 -0.61853737 -0.593885 -0.23891708
000070 33 a2 a4 bd 21 a2 25 be de e9 8f be 34 f7 44 be
       -0.080387495 -0.16175129 -0.28108114 -0.19234926
000080 fa c2 cb be 95 85 c8 be e0 ff 0f bf 59 1e cc be
       -0.39797193 -0.39164415 -0.5624981 -0.39866903
000090 b9 66 46 be 53 67 89 be 1d c9 36 be 01 0f 98 be
       -0.19375123 -0.26836643 -0.17850156 -0.29698947
0000a0 df 76 79 be 61 51 11 bf 0f c5 d8 be 43 2b c0 3d
       -0.24361752 -0.567648 -0.42337844 0.093832515
0000b0 84 b8 22 bf 35 fe f0 be 5b 5b c9 be 04 11 f1 bd
       -0.635628 -0.47068945 -0.3932751 -0.117708236
0000c0 a5 05 e4 be 08 2a 30 bf a9 69 ef bd 1a 80 60 3d
       -0.44535556 -0.68814135 -0.11690075 0.054809667
0000d0 7b f5 86 be 7c 71 c0 be 1b 6d 03 be 05 c9 80 be
       -0.26359162 -0.37586582 -0.12834589 -0.25153366
0000e0 b0 67 15 be f9 38 b1 be 02 44 c2 bd d3 2f 02 bf
       -0.14590335 -0.3461378 -0.09485628 -0.50854224
0000f0 ad cd 14 bf 07 c6 17 be 94 d9 bf be 79 78 9c be
       -0.58126336 -0.14821635 -0.37470686 -0.30560663
000100 90 d5 c6 be ea 56 41 be d6 1c 9a be 00 c1 83 be
       -0.3883481 -0.18880811 -0.30100125 -0.25733185
000110 d0 98 17 bf e7 68 38 be 84 d3 d7 be e3 2d ea be
       -0.5921755 -0.18008767 -0.4215356 -0.45738134
000120 38 b9 8a 3c 80 39 52 be 1d e2 bb be 69 0a 09 be
       0.016934022 -0.20529747 -0.36695948 -0.13382877
000130 94 aa e8 be 6c 1e 7e be 93 58 c1 be d3 d9 d2 be
       -0.4544264 -0.24816293 -0.3776289 -0.41181812
000140 93 df 36 bf 51 04 05 bf 6d e9 c3 be f9 57 dc be
       -0.714349 -0.5195971 -0.38264027 -0.43035868
000150 4b 60 9f be 24 5a 97 be d9 d9 c8 be 37 38 71 be
       -0.31128153 -0.2956096 -0.39228705 -0.235566
000160 0e c2 5f 3e 72 af c9 be 0e a3 1f bf 15 1e e9 be
       0.2185137 -0.39391667 -0.62358177 -0.45530763
000170 fd 63 6a be 56 a9 2c be 18 f7 37 bf bb d4 02 bf
       -0.22889705 -0.16861472 -0.7186141 -0.5110585
000180 32 5d 93 be f1 b4 fb bd 27 5f 08 bf 59 ca a0 be
       -0.2878204 -0.12290371 -0.5327019 -0.3140438
000190 4f 37 69 be 67 9f eb be 59 ae 0a bf cf 17 1e be
       -0.22775005 -0.46020052 -0.54172283 -0.1543877
0001a0 83 8d 53 bf f6 f1 69 be d6 fa 99 be 02 10 ff be
       -0.82637805 -0.22846207 -0.30074185 -0.498169
0001b0 60 ed 66 be 9a d4 f2 3d 7e aa 03 be 12 4f 7d be
       -0.22551489 0.11856957 -0.12858006 -0.24737194
0001c0 ad a7 01 bf 5a 02 4d bf cd 00 21 be 7f 6a 6e be
       -0.5064648 -0.80081713 -0.15722962 -0.23282813
0001d0 23 ce da be 2e 71 26 be 29 2f e9 be bf 35 28 bf
       -0.42735395 -0.16254112 -0.45543793 -0.6570701
0001e0 10 62 fb be be a1 31 bf 73 a7 17 bf 0a 9e 05 be
       -0.49098253 -0.69387424 -0.5923988 -0.13048568
0001f0 96 f9 5c be a6 a0 81 be fb 1b a1 be 51 58 e6 be
       -0.21579584 -0.25317878 -0.3146666 -0.44989255
000200 1a 54 04 bf ad 5d ed be a3 a9 20 bf 56 b9 8a 3e
       -0.5169083 -0.4636053 -0.62758845 0.27094525
000210 e1 e6 f4 bc 71 20 22 bf 68 ee e2 be 89 a3 12 bd
       -0.029895248 -0.6333075 -0.44322515 -0.03580049
000220 ad 9b 13 bf 58 a2 60 be e1 15 ea be 13 52 d6 be
       -0.5765942 -0.21936929 -0.45719817 -0.41859493
000230 80 dd b7 be fd 95 11 bf 3b ff 2a bf d5 03 f4 be
       -0.3591118 -0.5686949 -0.667957 -0.47659174
000240 5b a0 ca be cf 9b e0 be 87 a1 84 be 3a 57 da be
       -0.39575467 -0.43868873 -0.25904486 -0.42644674
000250 cb 75 d2 bd b3 4f 34 bf 53 84 1e be 71 e5 3c bf
       -0.102763735 -0.7043411 -0.15480165 -0.737876
000260 b4 46 8f be 9a db c7 be 74 67 70 be c5 4e e3 be
       -0.2798363 -0.3903473 -0.23476964 -0.44396034
000270 f5 77 57 be 96 a7 2c bf a0 61 6a bd 6a f9 f7 be
       -0.21041854 -0.67443216 -0.05722201 -0.48432475
000280 db ad ab be d4 27 08 bf f6 bd f3 be f7 c5 5a be
       -0.3353108 -0.5318577 -0.47605866 -0.2136458
000290 ae 19 19 be 15 25 42 bf 6f fe 90 bd ef 00 eb bd
       -0.14951202 -0.7583783 -0.07079779 -0.114747874
0002a0 98 b1 eb be 82 9a 0d bf 54 97 70 be dc fd 08 bf
       -0.4603393 -0.55313885 -0.23495227 -0.5351236
0002b0 66 18 6c be 4c 62 e1 be b0 aa 30 bf 8a 68 d8 be
       -0.23056182 -0.44020307 -0.6901045 -0.42267257
0002c0 2f 2e 2a bf 9e f6 0b bf 71 7d d0 be f1 be a0 be
       -0.6647672 -0.5467318 -0.40720704 -0.31395677
0002d0 ab 29 03 bf c8 a4 83 bd 29 8c 1a bf da bc 13 bf
       -0.51235455 -0.06427914 -0.6037012 -0.5771004
0002e0 2f 97 19 bf 8c 53 8b 3c f6 de 01 bf f0 44 31 be
       -0.5999631 0.017007612 -0.50730836 -0.17311454
0002f0 56 26 8e be 0a 44 20 bf ae fd d6 bd 51 a7 af be
       -0.27763623 -0.6260382 -0.10497604 -0.3430734
000300 9b 79 61 be d9 9d d7 be 54 23 13 bf 16 31 e4 be
       -0.22019045 -0.42112616 -0.5747578 -0.445687
000310 f3 99 a3 be 50 41 e8 be 16 ea d9 be c1 6a f6 be
       -0.3195339 -0.4536233 -0.42561406 -0.48128322
000320 e1 82 40 bf 57 13 aa be 32 2b 0e bf 42 db 06 bf
       -0.75199705 -0.3321788 -0.5553466 -0.5267831
000330 7c 53 5c bd c5 76 be be 78 b8 1c bf 8a 9b 0a bf
       -0.053790554 -0.3719999 -0.61218977 -0.54143584
000340 a1 38 a8 be 4e f0 71 be bd 35 1b bf 2a 91 8b be
       -0.32855704 -0.23626825 -0.60628873 -0.2725919
000350 c3 22 05 bd 93 d6 b9 be 20 1d 0f bf 54 22 9a be
       -0.032503854 -0.3629652 -0.55903816 -0.30104315
000360 45 b7 f6 be fd f8 d4 be 0d 58 c0 be b9 eb ae 3e
       -0.481867 -0.41596213 -0.37567177 0.34164217
000370 74 53 17 bf e1 03 05 bf c1 21 f6 be 57 4f 0b be
       -0.59111714 -0.51959044 -0.48072627 -0.13604484
000380 b7 62 ab be b6 e5 05 be 79 c5 59 be 06 0a 07 bf
       -0.3347375 -0.13075909 -0.21266736 -0.5274967
000390 55 21 64 be 24 e7 11 bf f6 67 18 be 63 aa 8e be
       -0.2227834 -0.5699332 -0.14883408 -0.2786437
0003a0 3f 35 1b bf 50 2b 06 bf 4d 8a a2 be 68 66 1c be
       -0.6062812 -0.5240984 -0.3174614 -0.1527344
0003b0 aa dd f2 be 54 53 cf be 40 fa 26 bf 77 c7 a1 be
       -0.4743474 -0.40493262 -0.652256 -0.31597492
0003c0 f2 eb b1 be 1c db 00 be da 08 10 bf 5c 32 80 be
       -0.34750324 -0.12583584 -0.56263506 -0.2503842
0003d0 94 43 dd be 9c 2c 19 bf 0d 40 8f be 06 c2 18 be
       -0.4321562 -0.59833694 -0.27978554 -0.14917764
0003e0 53 0f 8e be 6e 0f 9b be 38 88 8e be f9 f5 ea be
       -0.27746066 -0.3028521 -0.27838302 -0.45890787
0003f0 70 57 61 be 49 5f f3 be 77 1e c1 be b7 b5 c6 be
       -0.22006011 -0.47533634 -0.37718555 -0.38810512

fc2.weight f4 [300, 404]
000000 6f 0d cc be 05 c9 58 3e a5 2d 82 3e c2 49 fb be
       -0.39854 0.21170433 0.2542545 -0.4907971
000010 43 43 61 3e 3b f7 d7 bc a2 ba 86 bd 99 d6 48 be
       0.21998315 -0.026363006 -0.06578566 -0.19613113
000020 73 c6 e1 be 08 b7 87 3e fd ea f9 3e ae 27 a8 3e
       -0.44096717 0.2650683 0.48812094 0.32842773
000030 6a 86 f1 3d 25 26 8b bf 3d 33 7c 3e 50 b3 53 3e
       0.117932156 -1.0871016 0.24628921 0.20673871
000040 d2 74 fe 3e 18 7d 41 be 31 b6 15 3d fd f4 c0 be
       0.49698502 -0.18895376 0.036550704 -0.3768691
000050 b1 43 95 bc 7f bd 8b 3f 26 e7 1c bc e6 bd 18 bf
       -0.018220754 1.0917205 -0.009576594 -0.5966476
000060 a0 66 0b 3f a4 13 9e be 4c 13 a5 be d0 46 bd be
       0.5445347 -0.3087436 -0.32241285 -0.36968088
000070 1f 1d bf be 50 29 9c bc 28 9b 78 3e 13 f8 f8 bd
       -0.37326905 -0.019062668 0.24277937 -0.121566914
000080 c8 82 ea 3e cd 9f 78 3e d1 02 1e 3d 23 c9 0c bf
       0.45802903 0.24279709 0.038576905 -0.5499441
000090 74 e3 c5 be 47 bc b5 3e 91 17 7d be 0a a4 ef 3e
       -0.38650095 0.35495207 -0.24716021 0.4680484
0000a0 fc fe 35 bf b0 5e e7 be 19 6f 92 bf c0 4c fd 3c
       -0.710922 -0.45189428 -1.1440154 0.030920386
0000b0 ec 78 94 3e 53 9a c3 3e bd e0 47 be 93 3c 43 3e
       0.28998506 0.38203678 -0.19519325 0.19066076
0000c0 bc ee 15 be 5c 79 4d 3d ce a8 43 3e c7 13 ad bb
       -0.14641851 0.050164565 0.19107363 -0.0052818987
0000d0 18 7e 06 3f 3f ab cd 3c 74 6a 13 3e 28 be 78 3e
       0.52536154 0.02510607 0.14396077 0.24291289
0000e0 13 23 54 be 6c 18 89 3e 16 f5 fc 3e 0c 34 49 be
       -0.20716505 0.26776445 0.49405736 -0.1964876
0000f0 6a 94 a1 3e dd 79 ab 3e e5 b8 07 bd fd 35 0c bd
       0.31558543 0.33491412 -0.033135314 -0.034231175
000100 94 07 30 3f dc d8 31 3f 8a ea 07 3e 2f b0 04 3e
       0.68761563 0.69471526 0.13273063 0.12957834
000110 25 e6 9e 3e 85 91 c6 be a2 9d 33 3e 57 d5 b2 be
       0.3103496 -0.38782898 0.17540601 -0.3492839
000120 64 52 5c be 93 94 24 3e 4f 85 16 be 0f 31 80 be
       -0.21515805 0.16072302 -0.1469929 -0.2503743
000130 85 6b 00 3d b7 b8 b8 bc 31 fc e1 bd 44 d8 e5 3e
       0.03135254 -0.022549016 -0.1103443 0.4489156
000140 be 1b af 3e e8 da 27 bf 5f 09 59 be 7f 24 56 3e
       0.34200853 -0.655684 -0.21194981 0.2091236
000150 6b 24 d9 3d 92 f7 59 3e 1c 86 24 3e 4c 30 5e 3d
       0.10602649 0.21285847 0.16066784 0.05424528
000160 8a f7 e9 be df d3 74 3e cc 54 ab be dc c6 f8 be
       -0.4569667 0.23908947 -0.33463132 -0.48589218
000170 0a 84 07 bf 4c bf e2 3d 49 b7 66 3e 3f 3e 01 3d
       -0.5293585 0.11071643 0.22530855 0.031553503
000180 12 1c 3a 3e ad 66 27 3e 0b b5 8e be 89 dd 90 bd
       0.1817477 0.16347761 -0.278725 -0.070735045
000190 8d 55 84 3e 6d a5 be be 10 d3 bc 3e d4 53 c7 be
       0.2584652 -0.37235585 0.36879778 -0.38931143
0001a0 0e c7 08 bb 07 e4 1a bf 22 f3 21 be ae 7d d2 be
       -0.00208706 -0.6050419 -0.15815404 -0.4111151
0001b0 9a b6 b4 bd fb 7d e2 be 86 0f 26 3f e7 24 d7 be
       -0.08823891 -0.4423674 0.64867437 -0.42020342
0001c0 36 62 08 bf 91 57 96 3e 79 d9 31 3e 07 d5 0e bf
       -0.5327486 0.29363683 0.17368115 -0.55793804
0001d0 48 07 96 3e f8 d3 82 be 32 8d 86 be 62 42 ee 3d
       0.2930243 -0.25552344 -0.26279598 0.11633755
0001e0 26 a0 d9 be ba 2c ad be 8d 93 b2 be 74 db a9 bd
       -0.42504996 -0.33823186 -0.34878197 -0.082938105
0001f0 61 b8 2b 3e 6b 2f 88 3e 59 05 24 bf 14 54 00 bf
       0.16769554 0.26598677 -0.6407066 -0.50128293
000200 21 ff 28 3e 9d 3a 96 3d 63 2b 5e 3f 52 b6 3c be
       0.16503574 0.07335398 0.8678495 -0.18428925
000210 1f 95 5e 3e f5 92 a1 bd 6a ac c4 be b3 ea 09 bd
       0.21736573 -0.07889358 -0.38412791 -0.033671092
000220 aa f4 db bd e4 10 22 be 24 ad d1 be 12 c1 95 bf
       -0.10740025 -0.15826756 -0.40952408 -1.1699545
000230 71 ea 9d be 59 52 0a 3e 3c 12 a6 3e 17 b6 dc 3d
       -0.30842927 0.13507976 0.32435787 0.107769184
000240 9a 32 39 3e 53 09 34 be 27 a7 b0 bd 3f f4 08 3c
       0.18085709 -0.17581682 -0.08625632 0.008359014
000250 95 89 a5 3d d0 67 48 3e 95 d7 b7 bc b6 69 72 3e
       0.08082882 0.19570851 -0.022441665 0.23673138
000260 b3 23 0c be 05 32 3d be dd 5e c8 be a9 aa 8a 3e
       -0.13685493 -0.18476112 -0.39134875 0.27083328
000270 fe 7e 1e 3c 7e c1 85 bd 95 4a 40 bf bc 06 e4 3e
       0.009673832 -0.06531046 -0.75113803 0.44536388
000280 78 49 8a 3e 86 5f 51 3e bc 5f ca 3e 10 be 00 be
       0.27009177 0.20446596 0.39526165 -0.12572503
000290 20 f2 2c be 71 44 19 3e 05 8c e0 bd 21 38 c8 3e
       -0.16889238 0.14967515 -0.109642066 0.39105323
0002a0 57 a7 aa 3c d2 9c 40 3e 86 91 b8 bc 96 0d 82 be
       0.020831747 0.18809822 -0.022530328 -0.2540099
0002b0 15 ea 31 bf 88 63 91 bd 04 75 a8 be 2d f6 a3 3e
       -0.69497806 -0.07099062 -0.32901776 0.32023755
0002c0 44 8f fc bc e9 36 b4 be 1c 07 26 bf 49 f1 26 3d
       -0.030830033 -0.35198143 -0.648546 0.04075745
0002d0 83 ca 4f bf ab d5 09 3e 40 a7 2c 3f 33 18 2b 3f
       -0.81168383 0.13460414 0.67442703 0.668338
0002e0 b7 10 b2 be e2 51 b1 bf e2 65 e1 bd 27 f2 6a bd
       -0.34778377 -1.3853114 -0.11005761 -0.05735984
0002f0 27 82 eb 3d 75 d6 5b bf f5 41 71 3e ad fc 8d be
       0.11499434 -0.8587411 0.23560317 -0.2773184
000300 8b 76 06 bf af 41 00 be ca 91 08 bf 1e 9e 72 3f
       -0.5252463 -0.12525056 -0.53347456 0.9477252
000310 49 5c 71 3e 1f d4 75 3e 74 cd b6 3d ec 67 b6 be
       0.2357036 0.24006699 0.08925906 -0.3562616
000320 bb 03 95 3e c0 f6 8a bd be 6d 35 bf f2 ea 8b be
       0.2910441 -0.06785345 -0.7087058 -0.27327687
000330 ef 92 f2 be 52 03 e9 be 27 ad 22 be ad d3 9c 3e
       -0.47377726 -0.45510346 -0.15886365 0.30630246
000340 b4 4a 52 be 29 8e d1 3d 75 3c 6c 3e 1c 10 a3 3e
       -0.2053631 0.10232193 0.23069938 0.31848228
000350 39 70 a4 3e 8a 93 eb bc 66 d1 3a 3f 56 5e 95 3e
       0.3211687 -0.028756876 0.72975767 0.29173535
000360 e9 26 a8 3e 9f 6f 32 bf 2e fc e4 3d 1b d2 88 bb
       0.32842186 -0.6970157 0.11180912 -0.004175437
000370 0a 23 52 3d 2e 24 54 3e 94 eb ce be 78 67 95 3e
       0.051302947 0.20716926 -0.40414107 0.29180503
000380 0d ea 78 3e a3 d9 7e 3e e3 c0 5e be 15 fc fd be
       0.24308033 0.2488771 -0.21753268 -0.49606386
000390 95 b7 5a be 5c b9 a9 bd fc 67 a4 be 51 6f c5 3d
       -0.21359093 -0.082873076 -0.32110584 0.096403725
0003a0 3d a3 5e 3f 7d f8 01 3f e2 a4 7f 3e a0 49 b2 3e
       0.8696783 0.5076979 0.24965242 0.34821796
0003b0 25 76 b5 3e c6 df be bd f1 dc ab bd 14 7f e2 bc
       0.354417 -0.09320025 -0.083917506 -0.027648486
0003c0 e5 d7 2b bf 2a 18 c2 be 7e ab 0d be 05 ea fc 3e
       -0.67126304 -0.3790906 -0.1383495 0.49397293
0003d0 de fa ba 3e 32 a6 e7 be 53 1e 0b 3d af 98 1b 3e
       0.3651952 -0.45243984 0.033964466 0.15194963
0003e0 5f 81 92 bd c5 a0 a7 bd 88 6c 33 bb 4d 66 35 be
       -0.07153582 -0.08184961 -0.0027377922 -0.17714806
0003f0 c3 0b f1 be 5a 53 c4 ba ae 8a bc be 49 b2 30 3e
       -0.47079286 -0.0014978454 -0.36824554 0.1725551

fc2.bias f4 [300]
000000 9b b9 1e 3f 9d 32 f6 3e da ff b9 bd 7d c5 b8 be
       0.6200196 0.4808549 -0.09082003 -0.36088172
000010 a2 2e 0e bd db 96 1e bd 0d e8 90 bd d8 05 cc bd
       -0.03471244 -0.038718086 -0.0707551 -0.09962052
000020 f3 af 48 bd 57 e3 b6 bd 02 8d 42 bd a8 2e 6a 3f
       -0.048995923 -0.089300804 -0.047497757 0.9147744
000030 2f 6c 8c bd c8 ab c3 3c cf d8 d1 bd 2a 18 35 be
       -0.06856572 0.023885623 -0.10246431 -0.17684999
000040 7c 45 71 bd 04 af b1 bd 12 11 bc bd 02 89 48 3e
       -0.058904156 -0.0867596 -0.091829434 0.19583514
000050 34 aa 0f bc c0 f5 f2 bd 10 d8 a9 bc 94 1a 73 3e
       -0.008768607 -0.11863279 -0.02073291 0.23740608
000060 34 7e 32 3d 0d 35 63 3e 11 71 96 bd 46 2f 77 bd
       0.043577388 0.22188206 -0.073457845 -0.060347818
000070 ca 23 a8 bc 55 17 57 bd d4 ad 4b 3e 1e 18 8c bd
       -0.020524878 -0.052512486 0.19890529 -0.068405375
000080 c7 a0 a2 3e e6 f1 c0 bd 58 74 86 3e 78 d5 9b be
       0.31763288 -0.094211385 0.26260638 -0.304363
000090 47 da 50 bd 6c e4 9a bd 25 4d c5 bd 71 0a cf bd
       -0.050989415 -0.07563099 -0.09633855 -0.101094134
0000a0 cc 77 d9 bd 22 d6 a5 bd 7a ec ff bc 1c a6 4b bd
       -0.106185526 -0.08097483 -0.03124069 -0.04971896
0000b0 61 3e cd bd e6 13 b0 bd 48 bb c0 bd 54 16 db 3e
       -0.100216635 -0.08597545 -0.09410721 0.42790473
0000c0 b2 db 7b bd ab b6 28 3e 5b 6b 0b 3d 2f ce e1 3d
       -0.061488815 0.16475932 0.03403793 0.110256545
0000d0 95 d5 a0 3e ef d8 6f bd 89 97 0c 3f 11 a1 20 bd
       0.3141295 -0.058556493 0.54918724 -0.039216105
0000e0 9d 00 26 bd f7 8b be bd 04 53 13 be c8 88 b7 3d
       -0.04052793 -0.0930404 -0.14387137 0.08961636
0000f0 66 0e 5f bd cd 6a 42 3f c5 ff b9 bd b3 07 8a bc
       -0.05445709 0.75944215 -0.09081987 -0.016849374
000100 c1 a2 4f bd f0 b8 bc 3d f7 7f fd bc 71 da c9 bd
       -0.050692324 0.092149615 -0.030944807 -0.098561175
000110 2a 03 a2 3f 56 d8 94 ba c8 51 93 bd e2 c7 6e bd
       1.2657216 -0.0011355977 -0.07193333 -0.05829609
000120 2b 09 e3 bd 3b ac 02 3f fa 0c 0a 3f 20 27 b2 bd
       -0.11085733 0.5104405 0.5392605 -0.08698869
000130 77 3f 84 be 06 76 ae 3e aa 54 ff 3e 02 d6 39 3e
       -0.2582967 0.3407442 0.4986928 0.18148044
000140 e9 a3 4d bc 3a 5d 53 bd eb 48 c9 3e 85 4a 41 3e
       -0.012551286 -0.05160258 0.39313444 0.18876083
000150 51 1c 01 be 26 c0 68 3a a9 44 cf bd df 36 ed bc
       -0.12608458 0.000887873 -0.10120518 -0.028956829
000160 25 0d 06 3f d5 53 5d 3e 90 b7 6d 3e ab 46 b0 3e
       0.52363807 0.2161401 0.23214555 0.34428915
000170 88 5d b7 bd a1 8a 97 bd 8b 15 8d bd 30 22 a7 bd
       -0.089533865 -0.07399488 -0.068888746 -0.081608176
000180 3d 22 d6 3e 05 01 ab bd 4b 70 e5 bd 55 e1 9e 3e
       0.41822997 -0.08349804 -0.11203059 0.3103129
000190 ab 7a b1 bd d7 ff cc bd 17 10 a0 bd 4d f5 eb 3e
       -0.08665975 -0.10009735 -0.07815569 0.46085587
0001a0 1f 69 fb 3e d0 b1 3b bd ca 26 91 bd 70 75 c6 bd
       0.4910364 -0.045823872 -0.070874766 -0.09690368
0001b0 a5 11 d2 bd 01 6c d4 bc 2c 44 fe bc ec ae d5 bc
       -0.10257272 -0.025930407 -0.031038366 -0.026084386
0001c0 a9 71 d0 bd ac b5 98 bd b1 2e 67 3e 13 2f d1 3e
       -0.10177929 -0.07456526 0.22576405 0.40856227
0001d0 fe dc b1 bd 12 5f a6 bc e8 90 f8 3e c8 f5 95 3e
       -0.08684729 -0.020309005 0.48548055 0.2928908
0001e0 70 a6 0c 3e e1 e3 b3 3d bf b2 dd bc 91 3c d7 3e
       0.13735366 0.08783699 -0.027062772 0.42038396
0001f0 ba 46 cd bd b0 cc 84 bd bc 2f f9 3d 1b b5 c2 bd
       -0.10023256 -0.064843535 0.12167308 -0.095071994
000200 b3 12 dc bc 68 f4 e4 bd 24 d5 e5 bd c6 fd b4 bd
       -0.026864385 -0.11179429 -0.11222294 -0.08837466
000210 4e 23 d2 bd ed 00 9f bd 98 e7 c1 bd db 67 7f 3e
       -0.1026064 -0.077638485 -0.09468001 0.24941961
000220 2b e9 d6 bd 91 cb 8f 3e a4 0d 08 3e 23 71 2e be
       -0.10493692 0.28084996 0.13286453 -0.17035346
000230 34 56 f5 3d ef 35 85 3e 53 2b e3 bd 12 17 10 3f
       0.119793326 0.2601771 -0.11092248 0.562852
000240 c8 9a a6 be 0e 6e 2f 3f d5 9a b9 bd 67 52 cf bd
       -0.32539964 0.68527305 -0.09062735 -0.10123139
000250 e0 56 e9 bd cb c2 81 3e f9 31 d6 bd 09 a3 81 bd
       -0.11393523 0.25343928 -0.1045875 -0.063299246
000260 67 d8 8a 3e 18 34 c4 bd 63 f9 22 bd ee b5 ba bd
       0.27118227 -0.095802486 -0.039788615 -0.091167316
000270 75 e8 ec bd 08 35 20 bd 1f 92 9b 3e 84 c8 c8 3e
       -0.11567775 -0.039113075 0.3038492 0.3921548
000280 ea 5f 40 bc 8a 34 ca bd 7b 16 44 3b 90 93 fe bd
       -0.011741618 -0.09873302 0.0029920626 -0.12430489
000290 a1 50 a4 bd ec 43 39 bd 71 0c 76 bd 4b b3 d4 3e
       -0.08023191 -0.04523079 -0.06007046 0.4154304
0002a0 24 37 ba bd 18 8f ba be 59 ba 57 bd 3c ef 81 bd
       -0.090925485 -0.36437297 -0.05266795 -0.063444585
0002b0 9f d0 a1 bc bf 8f 22 be 91 09 f1 bd e6 ad 6e bd
       -0.019752799 -0.15875147 -0.11769403 -0.05827131
0002c0 93 08 10 3d e9 6f 29 bd ad a6 f1 3e 87 69 d3 3e
       0.035164427 -0.04136649 0.47197476 0.41291448
0002d0 fe 0c ce bd ab 57 8a bd 3b b1 70 bd 0b cc b0 bd
       -0.10061072 -0.067550026 -0.05876277 -0.08632668
0002e0 2d 6c f6 bd 28 5d 88 3e 53 98 d6 bc 84 ee a1 bd
       -0.12032352 0.26633573 -0.02619568 -0.07906821
0002f0 e2 4c a5 bd cb 3d 2d bd 05 a9 08 bd dc 05 5f bd
       -0.08071305 -0.04229526 -0.033364315 -0.054448947
000300 ca 69 86 bd 6a 9c 44 bd cc 1a eb 3e 12 96 8b 3e
       -0.065631464 -0.04800073 0.45918882 0.27262932
000310 17 d4 ce 3e 94 5d 93 bd e3 13 d7 bd da ae 20 bd
       0.40396187 -0.07195583 -0.1050184 -0.03922925
000320 bf 2b c8 bd 87 77 56 bd 41 81 11 bd ee ac 84 bd
       -0.09773969 -0.052360084 -0.035523657 -0.06478296
000330 6c 13 c9 bd ab 83 9d bd c2 36 c2 bc c1 a3 77 be
       -0.098181576 -0.07691129 -0.023707751 -0.24183561
000340 e0 c7 94 bd 7c 4a 95 bd e9 e4 d8 bd bd 96 27 bd
       -0.07264686 -0.072895974 -0.10590536 -0.04091524
000350 4d dd 61 3e ad 72 96 bd 19 fe b2 bd 2d 9d e6 bd
       0.22057076 -0.073460914 -0.087398715 -0.11260448
000360 29 02 af be 28 b8 40 3f 27 60 a0 bd 33 d3 f4 bc
       -0.34181336 0.75281 -0.078308396 -0.029885864
000370 1e 76 d7 bd 59 7b e3 bd 9a 4f 22 bd 9e 32 cb bd
       -0.10520576 -0.11107511 -0.039626695 -0.09921764
000380 b9 10 b7 bc cf b9 11 3f c0 29 97 bd fd cb 86 be
       -0.022346841 0.56924146 -0.0738101 -0.26327506
000390 f7 eb d9 bd 8b 7f 1d bd 6d 81 12 bd 50 38 c6 bc
       -0.1064071 -0.038451713 -0.03576796 -0.024196774
0003a0 d7 c5 3b bd 5c 4f c9 3e 17 cd 96 3e 1d b6 11 3f
       -0.04584297 0.3931836 0.29453346 0.5691851
0003b0 7e 0a 85 bd 7d 47 45 bd 2b 17 c8 bd 07 ce 07 be
       -0.06496142 -0.04816388 -0.09770044 -0.13262187
0003c0 18 9f ae bd 34 59 a3 be 52 99 b7 3e 99 61 1e bd
       -0.085264385 -0.31903994 0.35859162 -0.038667295
0003d0 0f c6 dc 3e 77 77 b0 bd 22 e8 cf bd e0 28 a1 bd
       0.43119857 -0.08616536 -0.10151698 -0.078691244
0003e0 ac 21 a1 3e d8 d9 3b bd fe 78 46 3e f1 1f f4 be
       0.31471002 -0.04586205 0.19382092 -0.4768062
0003f0 7b 31 3f bd 31 41 4b bd 42 b1 8f bd 1c 57 1d bd
       -0.046678048 -0.04962272 -0.07016231 -0.038413152

fc3.weight f4 [1, 300]
000000 b0 6c 45 3d 50 26 86 3d b8 4c 17 bc 89 df e4 bd
       0.048199356 0.06550276 -0.0092346 -0.111754484
000010 de aa db bc 63 91 68 bb 92 f8 44 bb 62 bf cb 3b
       -0.026814874 -0.0035487048 -0.0030055386 0.006217883
000020 0b 62 3f bb 55 d5 05 3c 74 90 96 3c e8 53 43 3e
       -0.0029202725 0.008168538 0.018379427 0.19074976
000030 72 dd 2a 3c d0 51 8f 3d 53 7b 11 bb 3b 50 1e be
       0.010428773 0.06998026 -0.002219875 -0.15460293
000040 8b 23 09 bc bd d6 6a bc 37 fa 91 39 b2 91 bd 3d
       -0.0083702905 -0.014333424 0.0002784298 0.09256305
000050 fd b6 04 3c a4 fc 10 3c 46 69 00 3e d3 43 4b 3d
       0.008100268 0.008849297 0.12540159 0.04962523
000060 ec c7 74 3d 97 10 c0 3d 70 c9 20 bc 9a 0e d9 bb
       0.059760973 0.09378164 -0.009813651 -0.006624055
000070 dd 07 2f 3c 82 5a 14 bd d7 28 22 3d f3 e5 9a ba
       0.010683027 -0.036219127 0.03958973 -0.0011817798
000080 90 51 8a 3d f6 a2 85 3c b1 cf 7d 3d 47 39 3b be
       0.06753838 0.016313057 0.061965648 -0.18283568
000090 61 ae 4d 3b b8 28 36 bc 6a 72 c2 bb c2 60 bb bc
       0.0031384456 -0.011118107 -0.0059340494 -0.022873286
0000a0 ee bb 90 bc d7 a7 0d bb c5 c2 3c 3a 7b 68 49 bb
       -0.017667737 -0.0021614933 0.0007200654 -0.0030732441
0000b0 4e 98 15 bc c0 5a 98 3b d2 70 21 ba 4e 5d 7a 3d
       -0.009130551 0.00464949 -0.0006158474 0.06112414
0000c0 47 0a c1 ba af 93 2d 3d dd 2f 1b 3d 86 a9 ae 3d
       -0.0014727794 0.04237717 0.037887443 0.08528428
0000d0 d9 db 00 3d 9a f8 70 3b df 33 dd 3d e6 a2 9a 3a
       0.031459663 0.0036769272 0.10800909 0.0011797815
0000e0 6e 30 39 bc 29 af 2b 3c 2c fa 33 bb 63 0f 11 3e
       -0.01130305 0.010478773 -0.0027462346 0.14166026
0000f0 82 05 c8 bb 13 6b ff 3d ae b8 24 3c 4f 9e c7 3c
       -0.006104172 0.12471595 0.010053797 0.02436748
000100 6a f6 29 3c 36 b8 bb 3d 85 ec d8 bb 5a bf b7 bc
       0.010373691 0.09165995 -0.006619992 -0.02243011
000110 81 b4 9a 3e 39 42 71 bd 35 02 29 bd ca cd a0 bb
       0.3021584 -0.058901045 -0.04126187 -0.0049073445
000120 4d 7f 04 bd 3d 0f 9f 3d 25 fd 8a 3d e1 fb 80 3c
       -0.032347966 0.07766578 0.06786565 0.015745105
000130 16 99 31 bd 7b cb 76 3d 6d 06 80 3d 67 30 45 3d
       -0.043358885 0.060252648 0.062512256 0.048141863
000140 40 23 25 3b c9 4c 12 bb b8 bc 4e 3d 73 7f 58 3d
       0.0025198013 -0.00223236 0.050472945 0.05285592
000150 a0 a3 8b 3e 68 95 9c 3d 45 c8 b0 bc 53 1a 03 3b
       0.27273273 0.076456845 -0.021579871 0.0020004704
000160 fa 7e 72 3d 12 b6 12 3e c4 18 7f 3d 84 82 25 3d
       0.059203126 0.14327267 0.062279478 0.040407673
000170 b6 72 2f 3c 9e d1 96 bc 28 1e a3 3c 75 f8 f1 bc
       0.010708502 -0.0184105 0.01991184 -0.029537419
000180 f2 cd 57 3d 9c 13 19 bc e5 27 9f 3c c0 a4 4c 3d
       0.05268664 -0.009343054 0.019428203 0.049961805
000190 2b d1 32 3c 5b 39 00 bb 23 5d 99 bc 64 49 02 3e
       0.010914127 -0.0019565437 -0.018721169 0.12723309
0001a0 a7 6a 97 3d d7 c8 7f bc da 23 f8 bb 28 47 72 3c
       0.07393389 -0.015611849 -0.007572633 0.014787473
0001b0 09 7b a3 bc 06 6a 6d 3d 84 91 b4 3a f2 63 d1 ba
       -0.019956129 0.05796244 0.0013776277 -0.0015975221
0001c0 33 fe 84 3b 9a 73 1b bc 17 aa c6 3c 39 6e bd 3d
       0.004058623 -0.009488011 0.024251027 0.09249539
0001d0 82 55 3d bc c7 14 53 3c 72 1b 2e 3d 09 5d 42 3d
       -0.011556031 0.012883372 0.042506643 0.047452006
0001e0 c9 16 d0 3d b6 11 8b 3d 00 ef 6e bb 20 94 30 3d
       0.10160596 0.067904875 -0.0036458373 0.043110013
0001f0 1b 4d 00 3c 67 9e 70 3c c5 bf 80 3d 41 c9 02 bb
       0.007830883 0.014686204 0.06286577 -0.0019956382
000200 f0 8e 09 3b 8a 04 c4 bb 88 32 e6 3c be 56 e0 3c
       0.0020989738 -0.0059819864 0.028100267 0.027385112
000210 4d ad 3d bd f7 34 0d 3b c4 f1 31 bb 81 de cd 3d
       -0.04630785 0.0021546462 -0.002715216 0.10052205
000220 25 f5 51 bc 4a 31 90 3d ac 61 c0 3d de 03 0d be
       -0.012814795 0.07040651 0.093936294 -0.13771006
000230 30 ac 82 3d d1 b4 b0 3d 15 e5 58 bb 97 39 60 3d
       0.063804984 0.08628238 -0.0033095528 0.054742422
000240 5d b0 96 bd f1 db a5 3d 85 96 98 3a cd 65 00 bc
       -0.073578574 0.08098591 0.0011641538 -0.007836771
000250 02 20 e4 bb fe f9 5f 3d 7b 89 63 3c 87 70 03 3c
       -0.0069618234 0.05468177 0.013887758 0.008022434
000260 ea 06 52 3d 26 03 10 bb 8d bc 3d 3d 35 06 9a bb
       0.051276125 -0.0021974533 0.046322394 -0.004700447
000270 41 7e d0 bd 41 e9 23 3c a2 b3 5b 3d a3 7e 80 3d
       -0.10180331 0.0100043425 0.053638108 0.06274154
000280 d3 73 71 bd 7d 54 a4 bc 04 c2 d7 bd 67 b9 f4 bb
       -0.05894835 -0.020059818 -0.105350524 -0.0074683907
000290 84 09 8d 3a fc d4 f1 bb 92 95 07 bc ef 32 77 3d
       0.0010760282 -0.007380126 -0.008275406 0.06035131
0002a0 63 11 6e 3c cc 35 3e bd b2 a0 21 bc 9b b5 49 3b
       0.0145305125 -0.046438023 -0.009864973 0.0030778411
0002b0 75 85 80 bc e6 a7 63 3c 17 73 2a bc ae 0e 89 3c
       -0.015688637 0.013895011 -0.010403416 0.016730633
0002c0 5d 01 15 be d4 53 9b 3b 45 04 0e 3e 4c 9c 91 3d
       -0.14551301 0.0047402177 0.13868816 0.071098894
0002d0 88 ac 87 3c 92 f9 b7 39 e0 e3 df bc 40 82 82 bc
       0.016561761 0.00035090424 -0.027330339 -0.015931249
0002e0 e8 06 58 bc c5 5f ff 3c bc 96 21 3c e6 0b 7e 3c
       -0.01318524 0.031173596 0.009862598 0.0155057665
0002f0 46 d3 42 3b 55 62 de bb e2 18 83 bc bd e2 dd bc
       0.002972798 -0.0067866244 -0.016003076 -0.027085656
000300 8b ee 0f bc eb 55 e4 ba bd 6a 74 3d cb 57 51 3d
       -0.0087849 -0.0017420625 0.059672106 0.051109117
000310 3f fe 97 3d 35 9f 39 bc b8 57 65 39 38 fe 3a bc
       0.074215405 -0.011329462 0.0002187182 -0.01141315
000320 57 c7 f0 bc 80 9c 97 bc d2 b4 f6 3a 7f 39 82 bb
       -0.029391928 -0.018507242 0.0018822199 -0.003974139
000330 b9 f5 52 bb d3 35 49 3c 9b 0f e9 3c 47 61 a9 bd
       -0.003218992 0.012280899 0.028449824 -0.08270507
000340 69 59 0b 3c c2 6f 6b bc 0e 5a c6 3b 61 9c ab bb
       0.008505204 -0.014369907 0.006053216 -0.0052371477
000350 a2 ca bd 3d 78 9b 73 3c e1 2b 43 bc 45 86 ad bc
       0.09267165 0.01486861 -0.011912317 -0.021182189
000360 a6 46 71 bd d4 c1 ac 3d 55 7a 8d bb be 9e 58 bc
       -0.058905266 0.08435407 -0.0043175616 -0.013221441
000370 d2 57 c8 bb 53 f9 9f bc 45 6c c3 bc 25 ab 7a 3c
       -0.0061139846 -0.019528067 -0.023855338 0.015299593
000380 09 c0 00 bc e2 ae d1 3d b0 2d 99 3c 3c e5 4b bd
       -0.007858285 0.102384344 0.018698543 -0.04977916
000390 33 47 a2 3b 98 b0 9d 3c 2f 9d 15 bb 37 59 1e bb
       0.0049523353 0.019249246 -0.0022829284 -0.0024162063
0003a0 10 63 fc bb 38 19 88 3d d0 16 e7 3d 57 8e bf 3d
       -0.007702239 0.06645435 0.11283648 0.09353321
0003b0 d7 07 d7 bc 55 5b c1 bb 7b 07 4d 3b c0 ad 88 3c
       -0.026248856 -0.00590078 0.0031284976 0.016684413
0003c0 4f 86 a8 3c 96 b0 9d bd 04 4f cd 3c 4f 46 bd 3c
       0.020571856 -0.07699697 0.025062092 0.023104815
0003d0 8f 0c b2 3d 78 44 72 bc ad 9b 48 bb 62 c5 22 3c
       0.086938016 -0.014786832 -0.0030610368 0.009934755
0003e0 5e 1e 93 3d a9 f1 73 3c 55 1b 7c 3d 49 4c b8 bd
       0.071835265 0.014889159 0.061549503 -0.08998925
0003f0 5e bd ab 3b 73 70 e9 3b 38 fb e7 3b c3 64 f4 bc
       0.00524108 0.0071240007 0.007079508 -0.029833203

bn.weight f4 [33]
000000 03 b0 d2 3e e4 c1 a2 3e ee d1 db 3e be 21 f0 3c
       0.4114991 0.31788552 0.429336 0.029312965
000010 a5 0b 0e 3d 5f 63 b8 3c da 42 0a 3d fd 4e 83 3c
       0.034679074 0.022508321 0.03375516 0.016028875
000020 cd 9e 85 3d b3 bc 57 3d c7 34 db 3d 26 c0 cf 3d
       0.065244295 0.052670192 0.10703426 0.10144071
000030 a2 41 c3 3d 56 76 50 3f 73 1b ab 3e 32 2c 39 3f
       0.09534003 0.81430566 0.3341938 0.7233306
000040 13 e5 af 3c e6 65 bf 3c 83 41 9e 3c fe f5 bb 3c
       0.021471536 0.023364019 0.019318348 0.022944447
000050 8d 9b 56 3d c8 b8 2d 3d 29 ba 34 3d 44 79 bf 3e
       0.05239444 0.04241255 0.04412285 0.37397206
000060 1f ce 1b 3e 05 e8 97 3e 8a 4f 43 3f c5 bb 43 3f
       0.15215348 0.29669204 0.7629324 0.7645839
000070 a3 85 31 3f d5 47 30 3f 4c 63 1d 3e 3b fd 26 3f
       0.6934454 0.68859607 0.1536991 0.6523015
000080 7d b2 70 3f
       0.9402235

bn.bias f4 [33]
000000 e7 a2 3b 3d fe 95 a7 bc 33 c9 7d 3a f0 ee 5c 3b
       0.045809653 -0.020457264 0.0009681165 0.0033711754
000010 f4 b1 7f 3c 67 02 00 3b 98 cc 06 bc f0 e8 8c 3d
       0.015606392 0.0019532682 -0.00822749 0.06880367
000020 41 52 80 ba 33 cf 46 3c 60 62 72 bc 4e cb 46 bd
       -0.0009790139 0.012134361 -0.014793962 -0.04853373
000030 e4 dd ca 3b dc b4 63 3d 31 a7 f4 3d 42 86 a4 3d
       0.006191002 0.055592403 0.11945952 0.0803342
000040 c7 a8 9a 3b 85 d7 1e ba 7a 62 cc bb e0 f8 f7 bb
       0.004719827 -0.00060593366 -0.0062373253 -0.00756751
000050 f3 4e 8c bb 45 1c 5f bb 9e 4a e0 3a ab c7 44 bd
       -0.0042818724 -0.003404395 0.0017112081 -0.04804198
000060 77 1b d8 3c 7c 52 5a bd 86 08 b7 bd a8 31 4a bb
       0.026380284 -0.05330132 -0.089371726 -0.0030852351
000070 28 86 2c 3e 21 08 99 3a 82 c4 62 bb ef 73 f0 3a
       0.16848052 0.0011675396 -0.003460199 0.0018345098
000080 bf 40 e9 3b
       0.007118314

bn.running_mean f4 [33]
000000 93 ad 1c 3f bf 84 0e c0 d2 19 9f bf 7d 00 53 3f
       0.61202353 -2.2268522 -1.2429755 0.8242262
000010 c2 39 8f 3d e5 fc da 3c fa 51 4d be 37 e9 26 3c
       0.06993438 0.026731918 -0.20050803 0.010187439
000020 f3 cd ee bb d5 85 2e 3b bf de a7 3c 68 71 41 3c
       -0.0072877347 0.0026630063 0.020491956 0.011806823
000030 62 a5 ba bc 01 56 bd 3e 91 5e 44 c0 52 56 86 bf
       -0.022783939 0.36979678 -3.0682719 -1.0495093
000040 91 b5 71 3c 20 5f 8c bc 6c e1 b8 bb c6 eb 73 bc
       0.014752761 -0.017135203 -0.0056421068 -0.014887756
000050 2d 13 31 3e 3b 03 05 bb 3d 6b 26 3e 03 75 9c 3c
       0.17292471 -0.0020296115 0.16251846 0.019098764
000060 40 0f e7 3d 4e 24 2f ba a9 05 12 3d fc ff 7f bf
       0.112822056 -0.000668113 0.03564993 -0.99999976
000070 a1 59 69 bd 00 00 00 00 fc ff 7f 3f 00 00 00 00
       -0.056970242 0.0 0.99999976 0.0
000080 ea b4 a3 bb
       -0.004995932

bn.running_var f4 [33]
000000 f5 a9 85 40 2d f9 b3 3f 78 2e 67 40 d2 34 a3 3d
       4.1769967 1.4060417 3.6122112 0.07969059
000010 de e9 8f 3d a1 37 a1 3c 6c 60 d7 3d 21 1d c1 3e
       0.070270285 0.019679846 0.10516438 0.37717536
000020 af ed a2 3d 00 69 02 3e 9c c1 26 40 3f 12 08 40
       0.07955491 0.12735367 2.605567 2.1261137
000030 05 1f 0c 40 2f d9 a6 41 f2 26 1d 40 50 34 99 41
       2.1893933 20.856047 2.455502 19.150543
000040 14 5f 42 3e 71 28 8f 3e 9e dd 2e 3e 28 b9 b7 3e
       0.18981582 0.27960542 0.17076728 0.3588345
000050 f7 21 76 40 74 af 23 3f 41 f1 80 3f 3e 52 0e 41
       3.845823 0.63939595 1.0073625 8.895079
000060 d9 ec 44 40 cc b8 10 41 98 06 01 42 04 00 00 00
       3.076956 9.045116 32.25644 6e-45
000070 a8 ea fd 41 04 00 00 00 04 00 00 00 04 00 00 00
       31.739578 6e-45 6e-45 6e-45
000080 38 af af 3e
       0.3431337
